module attributes {dlti.dl_spec = #dlti.dl_spec<#dlti.dl_entry<!llvm.ptr, dense<64> : vector<4xi32>>, #dlti.dl_entry<f80, dense<128> : vector<2xi32>>, #dlti.dl_entry<i64, dense<64> : vector<2xi32>>, #dlti.dl_entry<!llvm.ptr<272>, dense<64> : vector<4xi32>>, #dlti.dl_entry<!llvm.ptr<271>, dense<32> : vector<4xi32>>, #dlti.dl_entry<!llvm.ptr<270>, dense<32> : vector<4xi32>>, #dlti.dl_entry<f128, dense<128> : vector<2xi32>>, #dlti.dl_entry<f64, dense<64> : vector<2xi32>>, #dlti.dl_entry<f16, dense<16> : vector<2xi32>>, #dlti.dl_entry<i32, dense<32> : vector<2xi32>>, #dlti.dl_entry<i16, dense<16> : vector<2xi32>>, #dlti.dl_entry<i8, dense<8> : vector<2xi32>>, #dlti.dl_entry<i1, dense<8> : vector<2xi32>>, #dlti.dl_entry<"dlti.stack_alignment", 128 : i32>, #dlti.dl_entry<"dlti.endianness", "little">>, llvm.data_layout = "e-m:e-p270:32:32-p271:32:32-p272:64:64-i64:64-f80:128-n8:16:32:64-S128", llvm.target_triple = "x86_64-unknown-linux-gnu", "polygeist.target-cpu" = "x86-64", "polygeist.target-features" = "+cmov,+cx8,+fxsr,+mmx,+sse,+sse2,+x87", "polygeist.tune-cpu" = "generic"} {
  llvm.mlir.global internal constant @str0("_ticks: %llu\0A\00") {addr_space = 0 : i32}
  llvm.func @printf(!llvm.ptr, ...) -> i32
  memref.global @temp : memref<256xi32> = uninitialized
  memref.global @randArr : memref<4096xi32> = dense<"…">
  func.func @merge(%arg0: memref<?xi32>, %arg1: memref<?xi32>, %arg2: i32, %arg3: i32, %arg4: i32) attributes {llvm.linkage = #llvm.linkage<external>} {
    %c2_i32 = arith.constant 2 : i32
    %c0 = arith.constant 0 : index
    %c-1_i32 = arith.constant -1 : i32
    %c1_i32 = arith.constant 1 : i32
    %c1 = arith.constant 1 : index
    %0 = arith.addi %arg3, %c-1_i32 : i32
    %1 = arith.subi %arg4, %arg2 : i32
    %2:5 = scf.while (%arg5 = %arg2, %arg6 = %arg3, %arg7 = %arg2) : (i32, i32, i32) -> (i32, i32, i32, i32, i32) {
      %11 = arith.cmpi sle, %arg7, %0 : i32
      %12 = arith.cmpi sle, %arg6, %arg4 : i32
      %13 = arith.andi %11, %12 : i1
      %14:5 = scf.if %13 -> (i32, i32, i32, i32, i32) {
        %15 = arith.index_cast %arg7 : i32 to index
        %16 = memref.load %arg0[%15] : memref<?xi32>
        %17 = arith.index_cast %arg6 : i32 to index
        %18 = memref.load %arg0[%17] : memref<?xi32>
        %19 = arith.cmpi sle, %16, %18 : i32
        %20:3 = scf.if %19 -> (i32, i32, i32) {
          %22 = arith.index_cast %arg5 : i32 to index
          %23 = memref.load %arg0[%15] : memref<?xi32>
          memref.store %23, %arg1[%22] : memref<?xi32>
          %24 = arith.addi %arg5, %c1_i32 : i32
          %25 = arith.addi %arg7, %c1_i32 : i32
          scf.yield %24, %arg6, %25 : i32, i32, i32
        } else {
          %22 = arith.index_cast %arg5 : i32 to index
          %23 = memref.load %arg0[%17] : memref<?xi32>
          memref.store %23, %arg1[%22] : memref<?xi32>
          %24 = arith.addi %arg5, %c1_i32 : i32
          %25 = arith.addi %arg6, %c1_i32 : i32
          scf.yield %24, %25, %arg7 : i32, i32, i32
        }
        %21 = llvm.mlir.undef : i32
        scf.yield %20#0, %20#1, %20#2, %21, %21 : i32, i32, i32, i32, i32
      } else {
        scf.yield %arg5, %arg6, %arg7, %arg5, %arg7 : i32, i32, i32, i32, i32
      }
      scf.condition(%13) %14#0, %14#1, %14#2, %14#3, %14#4 : i32, i32, i32, i32, i32
    } do {
    ^bb0(%arg5: i32, %arg6: i32, %arg7: i32, %arg8: i32, %arg9: i32):
      scf.yield %arg5, %arg6, %arg7 : i32, i32, i32
    }
    %3:3 = scf.while (%arg5 = %2#3, %arg6 = %2#4) : (i32, i32) -> (i32, i32, i32) {
      %11 = arith.cmpi sle, %arg6, %0 : i32
      %12:3 = scf.if %11 -> (i32, i32, i32) {
        %13 = arith.index_cast %arg5 : i32 to index
        %14 = arith.index_cast %arg6 : i32 to index
        %15 = memref.load %arg0[%14] : memref<?xi32>
        memref.store %15, %arg1[%13] : memref<?xi32>
        %16 = arith.addi %arg6, %c1_i32 : i32
        %17 = arith.addi %arg5, %c1_i32 : i32
        %18 = llvm.mlir.undef : i32
        scf.yield %17, %16, %18 : i32, i32, i32
      } else {
        scf.yield %arg5, %arg6, %arg5 : i32, i32, i32
      }
      scf.condition(%11) %12#0, %12#1, %12#2 : i32, i32, i32
    } do {
    ^bb0(%arg5: i32, %arg6: i32, %arg7: i32):
      scf.yield %arg5, %arg6 : i32, i32
    }
    %4 = arith.addi %arg4, %c1_i32 : i32
    %5 = arith.index_cast %4 : i32 to index
    %6 = arith.index_cast %2#1 : i32 to index
    %7 = arith.index_cast %3#2 : i32 to index
    scf.for %arg5 = %6 to %5 step %c1 {
      %11 = arith.subi %arg5, %6 : index
      %12 = arith.addi %7, %11 : index
      %13 = memref.load %arg0[%arg5] : memref<?xi32>
      memref.store %13, %arg1[%12] : memref<?xi32>
    }
    %8 = arith.addi %1, %c2_i32 : i32
    %9 = arith.index_cast %8 : i32 to index
    %10 = arith.index_cast %arg4 : i32 to index
    scf.for %arg5 = %c0 to %9 step %c1 {
      %11 = arith.subi %10, %arg5 : index
      %12 = memref.load %arg1[%11] : memref<?xi32>
      memref.store %12, %arg0[%11] : memref<?xi32>
    }
    return
  }
  func.func @m_sort(%arg0: memref<?xi32>, %arg1: memref<?xi32>, %arg2: i32, %arg3: i32) attributes {llvm.linkage = #llvm.linkage<external>} {
    %c1 = arith.constant 1 : index
    %c0 = arith.constant 0 : index
    %c1_i32 = arith.constant 1 : i32
    %c2_i32 = arith.constant 2 : i32
    %0 = arith.cmpi sgt, %arg3, %arg2 : i32
    scf.if %0 {
      %1 = arith.addi %arg3, %arg2 : i32
      %2 = arith.divsi %1, %c2_i32 : i32
      func.call @m_sort(%arg0, %arg1, %arg2, %2) : (memref<?xi32>, memref<?xi32>, i32, i32) -> ()
      %3 = arith.addi %2, %c1_i32 : i32
      func.call @m_sort(%arg0, %arg1, %3, %arg3) : (memref<?xi32>, memref<?xi32>, i32, i32) -> ()
      %4 = arith.subi %arg3, %arg2 : i32
      %5:5 = scf.while (%arg4 = %arg2, %arg5 = %3, %arg6 = %arg2) : (i32, i32, i32) -> (i32, i32, i32, i32, i32) {
        %14 = arith.cmpi sle, %arg6, %2 : i32
        %15 = arith.cmpi sle, %arg5, %arg3 : i32
        %16 = arith.andi %14, %15 : i1
        %17:5 = scf.if %16 -> (i32, i32, i32, i32, i32) {
          %18 = arith.index_cast %arg6 : i32 to index
          %19 = memref.load %arg0[%18] : memref<?xi32>
          %20 = arith.index_cast %arg5 : i32 to index
          %21 = memref.load %arg0[%20] : memref<?xi32>
          %22 = arith.cmpi sle, %19, %21 : i32
          %23:3 = scf.if %22 -> (i32, i32, i32) {
            %25 = arith.index_cast %arg4 : i32 to index
            %26 = memref.load %arg0[%18] : memref<?xi32>
            memref.store %26, %arg1[%25] : memref<?xi32>
            %27 = arith.addi %arg4, %c1_i32 : i32
            %28 = arith.addi %arg6, %c1_i32 : i32
            scf.yield %27, %arg5, %28 : i32, i32, i32
          } else {
            %25 = arith.index_cast %arg4 : i32 to index
            %26 = memref.load %arg0[%20] : memref<?xi32>
            memref.store %26, %arg1[%25] : memref<?xi32>
            %27 = arith.addi %arg4, %c1_i32 : i32
            %28 = arith.addi %arg5, %c1_i32 : i32
            scf.yield %27, %28, %arg6 : i32, i32, i32
          }
          %24 = llvm.mlir.undef : i32
          scf.yield %23#0, %23#1, %23#2, %24, %24 : i32, i32, i32, i32, i32
        } else {
          scf.yield %arg4, %arg5, %arg6, %arg4, %arg6 : i32, i32, i32, i32, i32
        }
        scf.condition(%16) %17#0, %17#1, %17#2, %17#3, %17#4 : i32, i32, i32, i32, i32
      } do {
      ^bb0(%arg4: i32, %arg5: i32, %arg6: i32, %arg7: i32, %arg8: i32):
        scf.yield %arg4, %arg5, %arg6 : i32, i32, i32
      }
      %6:3 = scf.while (%arg4 = %5#3, %arg5 = %5#4) : (i32, i32) -> (i32, i32, i32) {
        %14 = arith.cmpi sle, %arg5, %2 : i32
        %15:3 = scf.if %14 -> (i32, i32, i32) {
          %16 = arith.index_cast %arg4 : i32 to index
          %17 = arith.index_cast %arg5 : i32 to index
          %18 = memref.load %arg0[%17] : memref<?xi32>
          memref.store %18, %arg1[%16] : memref<?xi32>
          %19 = arith.addi %arg5, %c1_i32 : i32
          %20 = arith.addi %arg4, %c1_i32 : i32
          %21 = llvm.mlir.undef : i32
          scf.yield %20, %19, %21 : i32, i32, i32
        } else {
          scf.yield %arg4, %arg5, %arg4 : i32, i32, i32
        }
        scf.condition(%14) %15#0, %15#1, %15#2 : i32, i32, i32
      } do {
      ^bb0(%arg4: i32, %arg5: i32, %arg6: i32):
        scf.yield %arg4, %arg5 : i32, i32
      }
      %7 = arith.addi %arg3, %c1_i32 : i32
      %8 = arith.index_cast %7 : i32 to index
      %9 = arith.index_cast %5#1 : i32 to index
      %10 = arith.index_cast %6#2 : i32 to index
      scf.for %arg4 = %9 to %8 step %c1 {
        %14 = arith.subi %arg4, %9 : index
        %15 = arith.addi %10, %14 : index
        %16 = memref.load %arg0[%arg4] : memref<?xi32>
        memref.store %16, %arg1[%15] : memref<?xi32>
      }
      %11 = arith.addi %4, %c2_i32 : i32
      %12 = arith.index_cast %11 : i32 to index
      %13 = arith.index_cast %arg3 : i32 to index
      scf.for %arg4 = %c0 to %12 step %c1 {
        %14 = arith.subi %13, %arg4 : index
        %15 = memref.load %arg1[%14] : memref<?xi32>
        memref.store %15, %arg0[%14] : memref<?xi32>
      }
    }
    return
  }
  func.func @mergeSort(%arg0: memref<?xi32>, %arg1: memref<?xi32>, %arg2: i32) attributes {llvm.linkage = #llvm.linkage<external>} {
    %c2_i32 = arith.constant 2 : i32
    %c1_i32 = arith.constant 1 : i32
    %c0 = arith.constant 0 : index
    %c1 = arith.constant 1 : index
    %c-1_i32 = arith.constant -1 : i32
    %c0_i32 = arith.constant 0 : i32
    %0 = arith.addi %arg2, %c-1_i32 : i32
    %1 = arith.cmpi sgt, %0, %c0_i32 : i32
    scf.if %1 {
      %2 = arith.divsi %0, %c2_i32 : i32
      %3 = arith.cmpi sgt, %2, %c0_i32 : i32
      scf.if %3 {
        %14 = arith.divsi %2, %c2_i32 : i32
        %15 = arith.cmpi sgt, %14, %c0_i32 : i32
        scf.if %15 {
          %27 = arith.divsi %14, %c2_i32 : i32
          %28 = arith.cmpi sgt, %27, %c0_i32 : i32
          scf.if %28 {
            %40 = arith.divsi %27, %c2_i32 : i32
            func.call @m_sort(%arg0, %arg1, %c0_i32, %40) : (memref<?xi32>, memref<?xi32>, i32, i32) -> ()
            %41 = arith.addi %40, %c1_i32 : i32
            func.call @m_sort(%arg0, %arg1, %41, %27) : (memref<?xi32>, memref<?xi32>, i32, i32) -> ()
            %42:5 = scf.while (%arg3 = %c0_i32, %arg4 = %41, %arg5 = %c0_i32) : (i32, i32, i32) -> (i32, i32, i32, i32, i32) {
              %51 = arith.cmpi sle, %arg5, %40 : i32
              %52 = arith.cmpi sle, %arg4, %27 : i32
              %53 = arith.andi %51, %52 : i1
              %54:5 = scf.if %53 -> (i32, i32, i32, i32, i32) {
                %55 = arith.index_cast %arg5 : i32 to index
                %56 = memref.load %arg0[%55] : memref<?xi32>
                %57 = arith.index_cast %arg4 : i32 to index
                %58 = memref.load %arg0[%57] : memref<?xi32>
                %59 = arith.cmpi sle, %56, %58 : i32
                %60:3 = scf.if %59 -> (i32, i32, i32) {
                  %62 = arith.index_cast %arg3 : i32 to index
                  %63 = memref.load %arg0[%55] : memref<?xi32>
                  memref.store %63, %arg1[%62] : memref<?xi32>
                  %64 = arith.addi %arg3, %c1_i32 : i32
                  %65 = arith.addi %arg5, %c1_i32 : i32
                  scf.yield %64, %arg4, %65 : i32, i32, i32
                } else {
                  %62 = arith.index_cast %arg3 : i32 to index
                  %63 = memref.load %arg0[%57] : memref<?xi32>
                  memref.store %63, %arg1[%62] : memref<?xi32>
                  %64 = arith.addi %arg3, %c1_i32 : i32
                  %65 = arith.addi %arg4, %c1_i32 : i32
                  scf.yield %64, %65, %arg5 : i32, i32, i32
                }
                %61 = llvm.mlir.undef : i32
                scf.yield %60#0, %60#1, %60#2, %61, %61 : i32, i32, i32, i32, i32
              } else {
                scf.yield %arg3, %arg4, %arg5, %arg3, %arg5 : i32, i32, i32, i32, i32
              }
              scf.condition(%53) %54#0, %54#1, %54#2, %54#3, %54#4 : i32, i32, i32, i32, i32
            } do {
            ^bb0(%arg3: i32, %arg4: i32, %arg5: i32, %arg6: i32, %arg7: i32):
              scf.yield %arg3, %arg4, %arg5 : i32, i32, i32
            }
            %43:3 = scf.while (%arg3 = %42#3, %arg4 = %42#4) : (i32, i32) -> (i32, i32, i32) {
              %51 = arith.cmpi sle, %arg4, %40 : i32
              %52:3 = scf.if %51 -> (i32, i32, i32) {
                %53 = arith.index_cast %arg3 : i32 to index
                %54 = arith.index_cast %arg4 : i32 to index
                %55 = memref.load %arg0[%54] : memref<?xi32>
                memref.store %55, %arg1[%53] : memref<?xi32>
                %56 = arith.addi %arg4, %c1_i32 : i32
                %57 = arith.addi %arg3, %c1_i32 : i32
                %58 = llvm.mlir.undef : i32
                scf.yield %57, %56, %58 : i32, i32, i32
              } else {
                scf.yield %arg3, %arg4, %arg3 : i32, i32, i32
              }
              scf.condition(%51) %52#0, %52#1, %52#2 : i32, i32, i32
            } do {
            ^bb0(%arg3: i32, %arg4: i32, %arg5: i32):
              scf.yield %arg3, %arg4 : i32, i32
            }
            %44 = arith.addi %27, %c1_i32 : i32
            %45 = arith.index_cast %44 : i32 to index
            %46 = arith.index_cast %42#1 : i32 to index
            %47 = arith.index_cast %43#2 : i32 to index
            scf.for %arg3 = %46 to %45 step %c1 {
              %51 = arith.subi %arg3, %46 : index
              %52 = arith.addi %47, %51 : index
              %53 = memref.load %arg0[%arg3] : memref<?xi32>
              memref.store %53, %arg1[%52] : memref<?xi32>
            }
            %48 = arith.addi %27, %c2_i32 : i32
            %49 = arith.index_cast %48 : i32 to index
            %50 = arith.index_cast %27 : i32 to index
            scf.for %arg3 = %c0 to %49 step %c1 {
              %51 = arith.subi %50, %arg3 : index
              %52 = memref.load %arg1[%51] : memref<?xi32>
              memref.store %52, %arg0[%51] : memref<?xi32>
            }
          }
          %29 = arith.addi %27, %c1_i32 : i32
          %30 = arith.cmpi sgt, %14, %29 : i32
          scf.if %30 {
            %40 = arith.addi %14, %29 : i32
            %41 = arith.divsi %40, %c2_i32 : i32
            func.call @m_sort(%arg0, %arg1, %29, %41) : (memref<?xi32>, memref<?xi32>, i32, i32) -> ()
            %42 = arith.addi %41, %c1_i32 : i32
            func.call @m_sort(%arg0, %arg1, %42, %14) : (memref<?xi32>, memref<?xi32>, i32, i32) -> ()
            %43 = arith.subi %14, %29 : i32
            %44:5 = scf.while (%arg3 = %29, %arg4 = %42, %arg5 = %29) : (i32, i32, i32) -> (i32, i32, i32, i32, i32) {
              %53 = arith.cmpi sle, %arg5, %41 : i32
              %54 = arith.cmpi sle, %arg4, %14 : i32
              %55 = arith.andi %53, %54 : i1
              %56:5 = scf.if %55 -> (i32, i32, i32, i32, i32) {
                %57 = arith.index_cast %arg5 : i32 to index
                %58 = memref.load %arg0[%57] : memref<?xi32>
                %59 = arith.index_cast %arg4 : i32 to index
                %60 = memref.load %arg0[%59] : memref<?xi32>
                %61 = arith.cmpi sle, %58, %60 : i32
                %62:3 = scf.if %61 -> (i32, i32, i32) {
                  %64 = arith.index_cast %arg3 : i32 to index
                  %65 = memref.load %arg0[%57] : memref<?xi32>
                  memref.store %65, %arg1[%64] : memref<?xi32>
                  %66 = arith.addi %arg3, %c1_i32 : i32
                  %67 = arith.addi %arg5, %c1_i32 : i32
                  scf.yield %66, %arg4, %67 : i32, i32, i32
                } else {
                  %64 = arith.index_cast %arg3 : i32 to index
                  %65 = memref.load %arg0[%59] : memref<?xi32>
                  memref.store %65, %arg1[%64] : memref<?xi32>
                  %66 = arith.addi %arg3, %c1_i32 : i32
                  %67 = arith.addi %arg4, %c1_i32 : i32
                  scf.yield %66, %67, %arg5 : i32, i32, i32
                }
                %63 = llvm.mlir.undef : i32
                scf.yield %62#0, %62#1, %62#2, %63, %63 : i32, i32, i32, i32, i32
              } else {
                scf.yield %arg3, %arg4, %arg5, %arg3, %arg5 : i32, i32, i32, i32, i32
              }
              scf.condition(%55) %56#0, %56#1, %56#2, %56#3, %56#4 : i32, i32, i32, i32, i32
            } do {
            ^bb0(%arg3: i32, %arg4: i32, %arg5: i32, %arg6: i32, %arg7: i32):
              scf.yield %arg3, %arg4, %arg5 : i32, i32, i32
            }
            %45:3 = scf.while (%arg3 = %44#3, %arg4 = %44#4) : (i32, i32) -> (i32, i32, i32) {
              %53 = arith.cmpi sle, %arg4, %41 : i32
              %54:3 = scf.if %53 -> (i32, i32, i32) {
                %55 = arith.index_cast %arg3 : i32 to index
                %56 = arith.index_cast %arg4 : i32 to index
                %57 = memref.load %arg0[%56] : memref<?xi32>
                memref.store %57, %arg1[%55] : memref<?xi32>
                %58 = arith.addi %arg4, %c1_i32 : i32
                %59 = arith.addi %arg3, %c1_i32 : i32
                %60 = llvm.mlir.undef : i32
                scf.yield %59, %58, %60 : i32, i32, i32
              } else {
                scf.yield %arg3, %arg4, %arg3 : i32, i32, i32
              }
              scf.condition(%53) %54#0, %54#1, %54#2 : i32, i32, i32
            } do {
            ^bb0(%arg3: i32, %arg4: i32, %arg5: i32):
              scf.yield %arg3, %arg4 : i32, i32
            }
            %46 = arith.addi %14, %c1_i32 : i32
            %47 = arith.index_cast %46 : i32 to index
            %48 = arith.index_cast %44#1 : i32 to index
            %49 = arith.index_cast %45#2 : i32 to index
            scf.for %arg3 = %48 to %47 step %c1 {
              %53 = arith.subi %arg3, %48 : index
              %54 = arith.addi %49, %53 : index
              %55 = memref.load %arg0[%arg3] : memref<?xi32>
              memref.store %55, %arg1[%54] : memref<?xi32>
            }
            %50 = arith.addi %43, %c2_i32 : i32
            %51 = arith.index_cast %50 : i32 to index
            %52 = arith.index_cast %14 : i32 to index
            scf.for %arg3 = %c0 to %51 step %c1 {
              %53 = arith.subi %52, %arg3 : index
              %54 = memref.load %arg1[%53] : memref<?xi32>
              memref.store %54, %arg0[%53] : memref<?xi32>
            }
          }
          %31:5 = scf.while (%arg3 = %c0_i32, %arg4 = %29, %arg5 = %c0_i32) : (i32, i32, i32) -> (i32, i32, i32, i32, i32) {
            %40 = arith.cmpi sle, %arg5, %27 : i32
            %41 = arith.cmpi sle, %arg4, %14 : i32
            %42 = arith.andi %40, %41 : i1
            %43:5 = scf.if %42 -> (i32, i32, i32, i32, i32) {
              %44 = arith.index_cast %arg5 : i32 to index
              %45 = memref.load %arg0[%44] : memref<?xi32>
              %46 = arith.index_cast %arg4 : i32 to index
              %47 = memref.load %arg0[%46] : memref<?xi32>
              %48 = arith.cmpi sle, %45, %47 : i32
              %49:3 = scf.if %48 -> (i32, i32, i32) {
                %51 = arith.index_cast %arg3 : i32 to index
                %52 = memref.load %arg0[%44] : memref<?xi32>
                memref.store %52, %arg1[%51] : memref<?xi32>
                %53 = arith.addi %arg3, %c1_i32 : i32
                %54 = arith.addi %arg5, %c1_i32 : i32
                scf.yield %53, %arg4, %54 : i32, i32, i32
              } else {
                %51 = arith.index_cast %arg3 : i32 to index
                %52 = memref.load %arg0[%46] : memref<?xi32>
                memref.store %52, %arg1[%51] : memref<?xi32>
                %53 = arith.addi %arg3, %c1_i32 : i32
                %54 = arith.addi %arg4, %c1_i32 : i32
                scf.yield %53, %54, %arg5 : i32, i32, i32
              }
              %50 = llvm.mlir.undef : i32
              scf.yield %49#0, %49#1, %49#2, %50, %50 : i32, i32, i32, i32, i32
            } else {
              scf.yield %arg3, %arg4, %arg5, %arg3, %arg5 : i32, i32, i32, i32, i32
            }
            scf.condition(%42) %43#0, %43#1, %43#2, %43#3, %43#4 : i32, i32, i32, i32, i32
          } do {
          ^bb0(%arg3: i32, %arg4: i32, %arg5: i32, %arg6: i32, %arg7: i32):
            scf.yield %arg3, %arg4, %arg5 : i32, i32, i32
          }
          %32:3 = scf.while (%arg3 = %31#3, %arg4 = %31#4) : (i32, i32) -> (i32, i32, i32) {
            %40 = arith.cmpi sle, %arg4, %27 : i32
            %41:3 = scf.if %40 -> (i32, i32, i32) {
              %42 = arith.index_cast %arg3 : i32 to index
              %43 = arith.index_cast %arg4 : i32 to index
              %44 = memref.load %arg0[%43] : memref<?xi32>
              memref.store %44, %arg1[%42] : memref<?xi32>
              %45 = arith.addi %arg4, %c1_i32 : i32
              %46 = arith.addi %arg3, %c1_i32 : i32
              %47 = llvm.mlir.undef : i32
              scf.yield %46, %45, %47 : i32, i32, i32
            } else {
              scf.yield %arg3, %arg4, %arg3 : i32, i32, i32
            }
            scf.condition(%40) %41#0, %41#1, %41#2 : i32, i32, i32
          } do {
          ^bb0(%arg3: i32, %arg4: i32, %arg5: i32):
            scf.yield %arg3, %arg4 : i32, i32
          }
          %33 = arith.addi %14, %c1_i32 : i32
          %34 = arith.index_cast %33 : i32 to index
          %35 = arith.index_cast %31#1 : i32 to index
          %36 = arith.index_cast %32#2 : i32 to index
          scf.for %arg3 = %35 to %34 step %c1 {
            %40 = arith.subi %arg3, %35 : index
            %41 = arith.addi %36, %40 : index
            %42 = memref.load %arg0[%arg3] : memref<?xi32>
            memref.store %42, %arg1[%41] : memref<?xi32>
          }
          %37 = arith.addi %14, %c2_i32 : i32
          %38 = arith.index_cast %37 : i32 to index
          %39 = arith.index_cast %14 : i32 to index
          scf.for %arg3 = %c0 to %38 step %c1 {
            %40 = arith.subi %39, %arg3 : index
            %41 = memref.load %arg1[%40] : memref<?xi32>
            memref.store %41, %arg0[%40] : memref<?xi32>
          }
        }
        %16 = arith.addi %14, %c1_i32 : i32
        %17 = arith.cmpi sgt, %2, %16 : i32
        scf.if %17 {
          %27 = arith.addi %2, %16 : i32
          %28 = arith.divsi %27, %c2_i32 : i32
          %29 = arith.cmpi sgt, %28, %16 : i32
          scf.if %29 {
            %42 = arith.addi %28, %16 : i32
            %43 = arith.divsi %42, %c2_i32 : i32
            func.call @m_sort(%arg0, %arg1, %16, %43) : (memref<?xi32>, memref<?xi32>, i32, i32) -> ()
            %44 = arith.addi %43, %c1_i32 : i32
            func.call @m_sort(%arg0, %arg1, %44, %28) : (memref<?xi32>, memref<?xi32>, i32, i32) -> ()
            %45 = arith.subi %28, %16 : i32
            %46:5 = scf.while (%arg3 = %16, %arg4 = %44, %arg5 = %16) : (i32, i32, i32) -> (i32, i32, i32, i32, i32) {
              %55 = arith.cmpi sle, %arg5, %43 : i32
              %56 = arith.cmpi sle, %arg4, %28 : i32
              %57 = arith.andi %55, %56 : i1
              %58:5 = scf.if %57 -> (i32, i32, i32, i32, i32) {
                %59 = arith.index_cast %arg5 : i32 to index
                %60 = memref.load %arg0[%59] : memref<?xi32>
                %61 = arith.index_cast %arg4 : i32 to index
                %62 = memref.load %arg0[%61] : memref<?xi32>
                %63 = arith.cmpi sle, %60, %62 : i32
                %64:3 = scf.if %63 -> (i32, i32, i32) {
                  %66 = arith.index_cast %arg3 : i32 to index
                  %67 = memref.load %arg0[%59] : memref<?xi32>
                  memref.store %67, %arg1[%66] : memref<?xi32>
                  %68 = arith.addi %arg3, %c1_i32 : i32
                  %69 = arith.addi %arg5, %c1_i32 : i32
                  scf.yield %68, %arg4, %69 : i32, i32, i32
                } else {
                  %66 = arith.index_cast %arg3 : i32 to index
                  %67 = memref.load %arg0[%61] : memref<?xi32>
                  memref.store %67, %arg1[%66] : memref<?xi32>
                  %68 = arith.addi %arg3, %c1_i32 : i32
                  %69 = arith.addi %arg4, %c1_i32 : i32
                  scf.yield %68, %69, %arg5 : i32, i32, i32
                }
                %65 = llvm.mlir.undef : i32
                scf.yield %64#0, %64#1, %64#2, %65, %65 : i32, i32, i32, i32, i32
              } else {
                scf.yield %arg3, %arg4, %arg5, %arg3, %arg5 : i32, i32, i32, i32, i32
              }
              scf.condition(%57) %58#0, %58#1, %58#2, %58#3, %58#4 : i32, i32, i32, i32, i32
            } do {
            ^bb0(%arg3: i32, %arg4: i32, %arg5: i32, %arg6: i32, %arg7: i32):
              scf.yield %arg3, %arg4, %arg5 : i32, i32, i32
            }
            %47:3 = scf.while (%arg3 = %46#3, %arg4 = %46#4) : (i32, i32) -> (i32, i32, i32) {
              %55 = arith.cmpi sle, %arg4, %43 : i32
              %56:3 = scf.if %55 -> (i32, i32, i32) {
                %57 = arith.index_cast %arg3 : i32 to index
                %58 = arith.index_cast %arg4 : i32 to index
                %59 = memref.load %arg0[%58] : memref<?xi32>
                memref.store %59, %arg1[%57] : memref<?xi32>
                %60 = arith.addi %arg4, %c1_i32 : i32
                %61 = arith.addi %arg3, %c1_i32 : i32
                %62 = llvm.mlir.undef : i32
                scf.yield %61, %60, %62 : i32, i32, i32
              } else {
                scf.yield %arg3, %arg4, %arg3 : i32, i32, i32
              }
              scf.condition(%55) %56#0, %56#1, %56#2 : i32, i32, i32
            } do {
            ^bb0(%arg3: i32, %arg4: i32, %arg5: i32):
              scf.yield %arg3, %arg4 : i32, i32
            }
            %48 = arith.addi %28, %c1_i32 : i32
            %49 = arith.index_cast %48 : i32 to index
            %50 = arith.index_cast %46#1 : i32 to index
            %51 = arith.index_cast %47#2 : i32 to index
            scf.for %arg3 = %50 to %49 step %c1 {
              %55 = arith.subi %arg3, %50 : index
              %56 = arith.addi %51, %55 : index
              %57 = memref.load %arg0[%arg3] : memref<?xi32>
              memref.store %57, %arg1[%56] : memref<?xi32>
            }
            %52 = arith.addi %45, %c2_i32 : i32
            %53 = arith.index_cast %52 : i32 to index
            %54 = arith.index_cast %28 : i32 to index
            scf.for %arg3 = %c0 to %53 step %c1 {
              %55 = arith.subi %54, %arg3 : index
              %56 = memref.load %arg1[%55] : memref<?xi32>
              memref.store %56, %arg0[%55] : memref<?xi32>
            }
          }
          %30 = arith.addi %28, %c1_i32 : i32
          %31 = arith.cmpi sgt, %2, %30 : i32
          scf.if %31 {
            %42 = arith.addi %2, %30 : i32
            %43 = arith.divsi %42, %c2_i32 : i32
            func.call @m_sort(%arg0, %arg1, %30, %43) : (memref<?xi32>, memref<?xi32>, i32, i32) -> ()
            %44 = arith.addi %43, %c1_i32 : i32
            func.call @m_sort(%arg0, %arg1, %44, %2) : (memref<?xi32>, memref<?xi32>, i32, i32) -> ()
            %45 = arith.subi %2, %30 : i32
            %46:5 = scf.while (%arg3 = %30, %arg4 = %44, %arg5 = %30) : (i32, i32, i32) -> (i32, i32, i32, i32, i32) {
              %55 = arith.cmpi sle, %arg5, %43 : i32
              %56 = arith.cmpi sle, %arg4, %2 : i32
              %57 = arith.andi %55, %56 : i1
              %58:5 = scf.if %57 -> (i32, i32, i32, i32, i32) {
                %59 = arith.index_cast %arg5 : i32 to index
                %60 = memref.load %arg0[%59] : memref<?xi32>
                %61 = arith.index_cast %arg4 : i32 to index
                %62 = memref.load %arg0[%61] : memref<?xi32>
                %63 = arith.cmpi sle, %60, %62 : i32
                %64:3 = scf.if %63 -> (i32, i32, i32) {
                  %66 = arith.index_cast %arg3 : i32 to index
                  %67 = memref.load %arg0[%59] : memref<?xi32>
                  memref.store %67, %arg1[%66] : memref<?xi32>
                  %68 = arith.addi %arg3, %c1_i32 : i32
                  %69 = arith.addi %arg5, %c1_i32 : i32
                  scf.yield %68, %arg4, %69 : i32, i32, i32
                } else {
                  %66 = arith.index_cast %arg3 : i32 to index
                  %67 = memref.load %arg0[%61] : memref<?xi32>
                  memref.store %67, %arg1[%66] : memref<?xi32>
                  %68 = arith.addi %arg3, %c1_i32 : i32
                  %69 = arith.addi %arg4, %c1_i32 : i32
                  scf.yield %68, %69, %arg5 : i32, i32, i32
                }
                %65 = llvm.mlir.undef : i32
                scf.yield %64#0, %64#1, %64#2, %65, %65 : i32, i32, i32, i32, i32
              } else {
                scf.yield %arg3, %arg4, %arg5, %arg3, %arg5 : i32, i32, i32, i32, i32
              }
              scf.condition(%57) %58#0, %58#1, %58#2, %58#3, %58#4 : i32, i32, i32, i32, i32
            } do {
            ^bb0(%arg3: i32, %arg4: i32, %arg5: i32, %arg6: i32, %arg7: i32):
              scf.yield %arg3, %arg4, %arg5 : i32, i32, i32
            }
            %47:3 = scf.while (%arg3 = %46#3, %arg4 = %46#4) : (i32, i32) -> (i32, i32, i32) {
              %55 = arith.cmpi sle, %arg4, %43 : i32
              %56:3 = scf.if %55 -> (i32, i32, i32) {
                %57 = arith.index_cast %arg3 : i32 to index
                %58 = arith.index_cast %arg4 : i32 to index
                %59 = memref.load %arg0[%58] : memref<?xi32>
                memref.store %59, %arg1[%57] : memref<?xi32>
                %60 = arith.addi %arg4, %c1_i32 : i32
                %61 = arith.addi %arg3, %c1_i32 : i32
                %62 = llvm.mlir.undef : i32
                scf.yield %61, %60, %62 : i32, i32, i32
              } else {
                scf.yield %arg3, %arg4, %arg3 : i32, i32, i32
              }
              scf.condition(%55) %56#0, %56#1, %56#2 : i32, i32, i32
            } do {
            ^bb0(%arg3: i32, %arg4: i32, %arg5: i32):
              scf.yield %arg3, %arg4 : i32, i32
            }
            %48 = arith.addi %2, %c1_i32 : i32
            %49 = arith.index_cast %48 : i32 to index
            %50 = arith.index_cast %46#1 : i32 to index
            %51 = arith.index_cast %47#2 : i32 to index
            scf.for %arg3 = %50 to %49 step %c1 {
              %55 = arith.subi %arg3, %50 : index
              %56 = arith.addi %51, %55 : index
              %57 = memref.load %arg0[%arg3] : memref<?xi32>
              memref.store %57, %arg1[%56] : memref<?xi32>
            }
            %52 = arith.addi %45, %c2_i32 : i32
            %53 = arith.index_cast %52 : i32 to index
            %54 = arith.index_cast %2 : i32 to index
            scf.for %arg3 = %c0 to %53 step %c1 {
              %55 = arith.subi %54, %arg3 : index
              %56 = memref.load %arg1[%55] : memref<?xi32>
              memref.store %56, %arg0[%55] : memref<?xi32>
            }
          }
          %32 = arith.subi %2, %16 : i32
          %33:5 = scf.while (%arg3 = %16, %arg4 = %30, %arg5 = %16) : (i32, i32, i32) -> (i32, i32, i32, i32, i32) {
            %42 = arith.cmpi sle, %arg5, %28 : i32
            %43 = arith.cmpi sle, %arg4, %2 : i32
            %44 = arith.andi %42, %43 : i1
            %45:5 = scf.if %44 -> (i32, i32, i32, i32, i32) {
              %46 = arith.index_cast %arg5 : i32 to index
              %47 = memref.load %arg0[%46] : memref<?xi32>
              %48 = arith.index_cast %arg4 : i32 to index
              %49 = memref.load %arg0[%48] : memref<?xi32>
              %50 = arith.cmpi sle, %47, %49 : i32
              %51:3 = scf.if %50 -> (i32, i32, i32) {
                %53 = arith.index_cast %arg3 : i32 to index
                %54 = memref.load %arg0[%46] : memref<?xi32>
                memref.store %54, %arg1[%53] : memref<?xi32>
                %55 = arith.addi %arg3, %c1_i32 : i32
                %56 = arith.addi %arg5, %c1_i32 : i32
                scf.yield %55, %arg4, %56 : i32, i32, i32
              } else {
                %53 = arith.index_cast %arg3 : i32 to index
                %54 = memref.load %arg0[%48] : memref<?xi32>
                memref.store %54, %arg1[%53] : memref<?xi32>
                %55 = arith.addi %arg3, %c1_i32 : i32
                %56 = arith.addi %arg4, %c1_i32 : i32
                scf.yield %55, %56, %arg5 : i32, i32, i32
              }
              %52 = llvm.mlir.undef : i32
              scf.yield %51#0, %51#1, %51#2, %52, %52 : i32, i32, i32, i32, i32
            } else {
              scf.yield %arg3, %arg4, %arg5, %arg3, %arg5 : i32, i32, i32, i32, i32
            }
            scf.condition(%44) %45#0, %45#1, %45#2, %45#3, %45#4 : i32, i32, i32, i32, i32
          } do {
          ^bb0(%arg3: i32, %arg4: i32, %arg5: i32, %arg6: i32, %arg7: i32):
            scf.yield %arg3, %arg4, %arg5 : i32, i32, i32
          }
          %34:3 = scf.while (%arg3 = %33#3, %arg4 = %33#4) : (i32, i32) -> (i32, i32, i32) {
            %42 = arith.cmpi sle, %arg4, %28 : i32
            %43:3 = scf.if %42 -> (i32, i32, i32) {
              %44 = arith.index_cast %arg3 : i32 to index
              %45 = arith.index_cast %arg4 : i32 to index
              %46 = memref.load %arg0[%45] : memref<?xi32>
              memref.store %46, %arg1[%44] : memref<?xi32>
              %47 = arith.addi %arg4, %c1_i32 : i32
              %48 = arith.addi %arg3, %c1_i32 : i32
              %49 = llvm.mlir.undef : i32
              scf.yield %48, %47, %49 : i32, i32, i32
            } else {
              scf.yield %arg3, %arg4, %arg3 : i32, i32, i32
            }
            scf.condition(%42) %43#0, %43#1, %43#2 : i32, i32, i32
          } do {
          ^bb0(%arg3: i32, %arg4: i32, %arg5: i32):
            scf.yield %arg3, %arg4 : i32, i32
          }
          %35 = arith.addi %2, %c1_i32 : i32
          %36 = arith.index_cast %35 : i32 to index
          %37 = arith.index_cast %33#1 : i32 to index
          %38 = arith.index_cast %34#2 : i32 to index
          scf.for %arg3 = %37 to %36 step %c1 {
            %42 = arith.subi %arg3, %37 : index
            %43 = arith.addi %38, %42 : index
            %44 = memref.load %arg0[%arg3] : memref<?xi32>
            memref.store %44, %arg1[%43] : memref<?xi32>
          }
          %39 = arith.addi %32, %c2_i32 : i32
          %40 = arith.index_cast %39 : i32 to index
          %41 = arith.index_cast %2 : i32 to index
          scf.for %arg3 = %c0 to %40 step %c1 {
            %42 = arith.subi %41, %arg3 : index
            %43 = memref.load %arg1[%42] : memref<?xi32>
            memref.store %43, %arg0[%42] : memref<?xi32>
          }
        }
        %18:5 = scf.while (%arg3 = %c0_i32, %arg4 = %16, %arg5 = %c0_i32) : (i32, i32, i32) -> (i32, i32, i32, i32, i32) {
          %27 = arith.cmpi sle, %arg5, %14 : i32
          %28 = arith.cmpi sle, %arg4, %2 : i32
          %29 = arith.andi %27, %28 : i1
          %30:5 = scf.if %29 -> (i32, i32, i32, i32, i32) {
            %31 = arith.index_cast %arg5 : i32 to index
            %32 = memref.load %arg0[%31] : memref<?xi32>
            %33 = arith.index_cast %arg4 : i32 to index
            %34 = memref.load %arg0[%33] : memref<?xi32>
            %35 = arith.cmpi sle, %32, %34 : i32
            %36:3 = scf.if %35 -> (i32, i32, i32) {
              %38 = arith.index_cast %arg3 : i32 to index
              %39 = memref.load %arg0[%31] : memref<?xi32>
              memref.store %39, %arg1[%38] : memref<?xi32>
              %40 = arith.addi %arg3, %c1_i32 : i32
              %41 = arith.addi %arg5, %c1_i32 : i32
              scf.yield %40, %arg4, %41 : i32, i32, i32
            } else {
              %38 = arith.index_cast %arg3 : i32 to index
              %39 = memref.load %arg0[%33] : memref<?xi32>
              memref.store %39, %arg1[%38] : memref<?xi32>
              %40 = arith.addi %arg3, %c1_i32 : i32
              %41 = arith.addi %arg4, %c1_i32 : i32
              scf.yield %40, %41, %arg5 : i32, i32, i32
            }
            %37 = llvm.mlir.undef : i32
            scf.yield %36#0, %36#1, %36#2, %37, %37 : i32, i32, i32, i32, i32
          } else {
            scf.yield %arg3, %arg4, %arg5, %arg3, %arg5 : i32, i32, i32, i32, i32
          }
          scf.condition(%29) %30#0, %30#1, %30#2, %30#3, %30#4 : i32, i32, i32, i32, i32
        } do {
        ^bb0(%arg3: i32, %arg4: i32, %arg5: i32, %arg6: i32, %arg7: i32):
          scf.yield %arg3, %arg4, %arg5 : i32, i32, i32
        }
        %19:3 = scf.while (%arg3 = %18#3, %arg4 = %18#4) : (i32, i32) -> (i32, i32, i32) {
          %27 = arith.cmpi sle, %arg4, %14 : i32
          %28:3 = scf.if %27 -> (i32, i32, i32) {
            %29 = arith.index_cast %arg3 : i32 to index
            %30 = arith.index_cast %arg4 : i32 to index
            %31 = memref.load %arg0[%30] : memref<?xi32>
            memref.store %31, %arg1[%29] : memref<?xi32>
            %32 = arith.addi %arg4, %c1_i32 : i32
            %33 = arith.addi %arg3, %c1_i32 : i32
            %34 = llvm.mlir.undef : i32
            scf.yield %33, %32, %34 : i32, i32, i32
          } else {
            scf.yield %arg3, %arg4, %arg3 : i32, i32, i32
          }
          scf.condition(%27) %28#0, %28#1, %28#2 : i32, i32, i32
        } do {
        ^bb0(%arg3: i32, %arg4: i32, %arg5: i32):
          scf.yield %arg3, %arg4 : i32, i32
        }
        %20 = arith.addi %2, %c1_i32 : i32
        %21 = arith.index_cast %20 : i32 to index
        %22 = arith.index_cast %18#1 : i32 to index
        %23 = arith.index_cast %19#2 : i32 to index
        scf.for %arg3 = %22 to %21 step %c1 {
          %27 = arith.subi %arg3, %22 : index
          %28 = arith.addi %23, %27 : index
          %29 = memref.load %arg0[%arg3] : memref<?xi32>
          memref.store %29, %arg1[%28] : memref<?xi32>
        }
        %24 = arith.addi %2, %c2_i32 : i32
        %25 = arith.index_cast %24 : i32 to index
        %26 = arith.index_cast %2 : i32 to index
        scf.for %arg3 = %c0 to %25 step %c1 {
          %27 = arith.subi %26, %arg3 : index
          %28 = memref.load %arg1[%27] : memref<?xi32>
          memref.store %28, %arg0[%27] : memref<?xi32>
        }
      }
      %4 = arith.addi %2, %c1_i32 : i32
      %5 = arith.cmpi sgt, %0, %4 : i32
      scf.if %5 {
        %14 = arith.addi %0, %4 : i32
        %15 = arith.divsi %14, %c2_i32 : i32
        %16 = arith.cmpi sgt, %15, %4 : i32
        scf.if %16 {
          %28 = arith.addi %15, %4 : i32
          %29 = arith.divsi %28, %c2_i32 : i32
          %30 = arith.cmpi sgt, %29, %4 : i32
          scf.if %30 {
            %43 = arith.addi %29, %4 : i32
            %44 = arith.divsi %43, %c2_i32 : i32
            func.call @m_sort(%arg0, %arg1, %4, %44) : (memref<?xi32>, memref<?xi32>, i32, i32) -> ()
            %45 = arith.addi %44, %c1_i32 : i32
            func.call @m_sort(%arg0, %arg1, %45, %29) : (memref<?xi32>, memref<?xi32>, i32, i32) -> ()
            %46 = arith.subi %29, %4 : i32
            %47:5 = scf.while (%arg3 = %4, %arg4 = %45, %arg5 = %4) : (i32, i32, i32) -> (i32, i32, i32, i32, i32) {
              %56 = arith.cmpi sle, %arg5, %44 : i32
              %57 = arith.cmpi sle, %arg4, %29 : i32
              %58 = arith.andi %56, %57 : i1
              %59:5 = scf.if %58 -> (i32, i32, i32, i32, i32) {
                %60 = arith.index_cast %arg5 : i32 to index
                %61 = memref.load %arg0[%60] : memref<?xi32>
                %62 = arith.index_cast %arg4 : i32 to index
                %63 = memref.load %arg0[%62] : memref<?xi32>
                %64 = arith.cmpi sle, %61, %63 : i32
                %65:3 = scf.if %64 -> (i32, i32, i32) {
                  %67 = arith.index_cast %arg3 : i32 to index
                  %68 = memref.load %arg0[%60] : memref<?xi32>
                  memref.store %68, %arg1[%67] : memref<?xi32>
                  %69 = arith.addi %arg3, %c1_i32 : i32
                  %70 = arith.addi %arg5, %c1_i32 : i32
                  scf.yield %69, %arg4, %70 : i32, i32, i32
                } else {
                  %67 = arith.index_cast %arg3 : i32 to index
                  %68 = memref.load %arg0[%62] : memref<?xi32>
                  memref.store %68, %arg1[%67] : memref<?xi32>
                  %69 = arith.addi %arg3, %c1_i32 : i32
                  %70 = arith.addi %arg4, %c1_i32 : i32
                  scf.yield %69, %70, %arg5 : i32, i32, i32
                }
                %66 = llvm.mlir.undef : i32
                scf.yield %65#0, %65#1, %65#2, %66, %66 : i32, i32, i32, i32, i32
              } else {
                scf.yield %arg3, %arg4, %arg5, %arg3, %arg5 : i32, i32, i32, i32, i32
              }
              scf.condition(%58) %59#0, %59#1, %59#2, %59#3, %59#4 : i32, i32, i32, i32, i32
            } do {
            ^bb0(%arg3: i32, %arg4: i32, %arg5: i32, %arg6: i32, %arg7: i32):
              scf.yield %arg3, %arg4, %arg5 : i32, i32, i32
            }
            %48:3 = scf.while (%arg3 = %47#3, %arg4 = %47#4) : (i32, i32) -> (i32, i32, i32) {
              %56 = arith.cmpi sle, %arg4, %44 : i32
              %57:3 = scf.if %56 -> (i32, i32, i32) {
                %58 = arith.index_cast %arg3 : i32 to index
                %59 = arith.index_cast %arg4 : i32 to index
                %60 = memref.load %arg0[%59] : memref<?xi32>
                memref.store %60, %arg1[%58] : memref<?xi32>
                %61 = arith.addi %arg4, %c1_i32 : i32
                %62 = arith.addi %arg3, %c1_i32 : i32
                %63 = llvm.mlir.undef : i32
                scf.yield %62, %61, %63 : i32, i32, i32
              } else {
                scf.yield %arg3, %arg4, %arg3 : i32, i32, i32
              }
              scf.condition(%56) %57#0, %57#1, %57#2 : i32, i32, i32
            } do {
            ^bb0(%arg3: i32, %arg4: i32, %arg5: i32):
              scf.yield %arg3, %arg4 : i32, i32
            }
            %49 = arith.addi %29, %c1_i32 : i32
            %50 = arith.index_cast %49 : i32 to index
            %51 = arith.index_cast %47#1 : i32 to index
            %52 = arith.index_cast %48#2 : i32 to index
            scf.for %arg3 = %51 to %50 step %c1 {
              %56 = arith.subi %arg3, %51 : index
              %57 = arith.addi %52, %56 : index
              %58 = memref.load %arg0[%arg3] : memref<?xi32>
              memref.store %58, %arg1[%57] : memref<?xi32>
            }
            %53 = arith.addi %46, %c2_i32 : i32
            %54 = arith.index_cast %53 : i32 to index
            %55 = arith.index_cast %29 : i32 to index
            scf.for %arg3 = %c0 to %54 step %c1 {
              %56 = arith.subi %55, %arg3 : index
              %57 = memref.load %arg1[%56] : memref<?xi32>
              memref.store %57, %arg0[%56] : memref<?xi32>
            }
          }
          %31 = arith.addi %29, %c1_i32 : i32
          %32 = arith.cmpi sgt, %15, %31 : i32
          scf.if %32 {
            %43 = arith.addi %15, %31 : i32
            %44 = arith.divsi %43, %c2_i32 : i32
            func.call @m_sort(%arg0, %arg1, %31, %44) : (memref<?xi32>, memref<?xi32>, i32, i32) -> ()
            %45 = arith.addi %44, %c1_i32 : i32
            func.call @m_sort(%arg0, %arg1, %45, %15) : (memref<?xi32>, memref<?xi32>, i32, i32) -> ()
            %46 = arith.subi %15, %31 : i32
            %47:5 = scf.while (%arg3 = %31, %arg4 = %45, %arg5 = %31) : (i32, i32, i32) -> (i32, i32, i32, i32, i32) {
              %56 = arith.cmpi sle, %arg5, %44 : i32
              %57 = arith.cmpi sle, %arg4, %15 : i32
              %58 = arith.andi %56, %57 : i1
              %59:5 = scf.if %58 -> (i32, i32, i32, i32, i32) {
                %60 = arith.index_cast %arg5 : i32 to index
                %61 = memref.load %arg0[%60] : memref<?xi32>
                %62 = arith.index_cast %arg4 : i32 to index
                %63 = memref.load %arg0[%62] : memref<?xi32>
                %64 = arith.cmpi sle, %61, %63 : i32
                %65:3 = scf.if %64 -> (i32, i32, i32) {
                  %67 = arith.index_cast %arg3 : i32 to index
                  %68 = memref.load %arg0[%60] : memref<?xi32>
                  memref.store %68, %arg1[%67] : memref<?xi32>
                  %69 = arith.addi %arg3, %c1_i32 : i32
                  %70 = arith.addi %arg5, %c1_i32 : i32
                  scf.yield %69, %arg4, %70 : i32, i32, i32
                } else {
                  %67 = arith.index_cast %arg3 : i32 to index
                  %68 = memref.load %arg0[%62] : memref<?xi32>
                  memref.store %68, %arg1[%67] : memref<?xi32>
                  %69 = arith.addi %arg3, %c1_i32 : i32
                  %70 = arith.addi %arg4, %c1_i32 : i32
                  scf.yield %69, %70, %arg5 : i32, i32, i32
                }
                %66 = llvm.mlir.undef : i32
                scf.yield %65#0, %65#1, %65#2, %66, %66 : i32, i32, i32, i32, i32
              } else {
                scf.yield %arg3, %arg4, %arg5, %arg3, %arg5 : i32, i32, i32, i32, i32
              }
              scf.condition(%58) %59#0, %59#1, %59#2, %59#3, %59#4 : i32, i32, i32, i32, i32
            } do {
            ^bb0(%arg3: i32, %arg4: i32, %arg5: i32, %arg6: i32, %arg7: i32):
              scf.yield %arg3, %arg4, %arg5 : i32, i32, i32
            }
            %48:3 = scf.while (%arg3 = %47#3, %arg4 = %47#4) : (i32, i32) -> (i32, i32, i32) {
              %56 = arith.cmpi sle, %arg4, %44 : i32
              %57:3 = scf.if %56 -> (i32, i32, i32) {
                %58 = arith.index_cast %arg3 : i32 to index
                %59 = arith.index_cast %arg4 : i32 to index
                %60 = memref.load %arg0[%59] : memref<?xi32>
                memref.store %60, %arg1[%58] : memref<?xi32>
                %61 = arith.addi %arg4, %c1_i32 : i32
                %62 = arith.addi %arg3, %c1_i32 : i32
                %63 = llvm.mlir.undef : i32
                scf.yield %62, %61, %63 : i32, i32, i32
              } else {
                scf.yield %arg3, %arg4, %arg3 : i32, i32, i32
              }
              scf.condition(%56) %57#0, %57#1, %57#2 : i32, i32, i32
            } do {
            ^bb0(%arg3: i32, %arg4: i32, %arg5: i32):
              scf.yield %arg3, %arg4 : i32, i32
            }
            %49 = arith.addi %15, %c1_i32 : i32
            %50 = arith.index_cast %49 : i32 to index
            %51 = arith.index_cast %47#1 : i32 to index
            %52 = arith.index_cast %48#2 : i32 to index
            scf.for %arg3 = %51 to %50 step %c1 {
              %56 = arith.subi %arg3, %51 : index
              %57 = arith.addi %52, %56 : index
              %58 = memref.load %arg0[%arg3] : memref<?xi32>
              memref.store %58, %arg1[%57] : memref<?xi32>
            }
            %53 = arith.addi %46, %c2_i32 : i32
            %54 = arith.index_cast %53 : i32 to index
            %55 = arith.index_cast %15 : i32 to index
            scf.for %arg3 = %c0 to %54 step %c1 {
              %56 = arith.subi %55, %arg3 : index
              %57 = memref.load %arg1[%56] : memref<?xi32>
              memref.store %57, %arg0[%56] : memref<?xi32>
            }
          }
          %33 = arith.subi %15, %4 : i32
          %34:5 = scf.while (%arg3 = %4, %arg4 = %31, %arg5 = %4) : (i32, i32, i32) -> (i32, i32, i32, i32, i32) {
            %43 = arith.cmpi sle, %arg5, %29 : i32
            %44 = arith.cmpi sle, %arg4, %15 : i32
            %45 = arith.andi %43, %44 : i1
            %46:5 = scf.if %45 -> (i32, i32, i32, i32, i32) {
              %47 = arith.index_cast %arg5 : i32 to index
              %48 = memref.load %arg0[%47] : memref<?xi32>
              %49 = arith.index_cast %arg4 : i32 to index
              %50 = memref.load %arg0[%49] : memref<?xi32>
              %51 = arith.cmpi sle, %48, %50 : i32
              %52:3 = scf.if %51 -> (i32, i32, i32) {
                %54 = arith.index_cast %arg3 : i32 to index
                %55 = memref.load %arg0[%47] : memref<?xi32>
                memref.store %55, %arg1[%54] : memref<?xi32>
                %56 = arith.addi %arg3, %c1_i32 : i32
                %57 = arith.addi %arg5, %c1_i32 : i32
                scf.yield %56, %arg4, %57 : i32, i32, i32
              } else {
                %54 = arith.index_cast %arg3 : i32 to index
                %55 = memref.load %arg0[%49] : memref<?xi32>
                memref.store %55, %arg1[%54] : memref<?xi32>
                %56 = arith.addi %arg3, %c1_i32 : i32
                %57 = arith.addi %arg4, %c1_i32 : i32
                scf.yield %56, %57, %arg5 : i32, i32, i32
              }
              %53 = llvm.mlir.undef : i32
              scf.yield %52#0, %52#1, %52#2, %53, %53 : i32, i32, i32, i32, i32
            } else {
              scf.yield %arg3, %arg4, %arg5, %arg3, %arg5 : i32, i32, i32, i32, i32
            }
            scf.condition(%45) %46#0, %46#1, %46#2, %46#3, %46#4 : i32, i32, i32, i32, i32
          } do {
          ^bb0(%arg3: i32, %arg4: i32, %arg5: i32, %arg6: i32, %arg7: i32):
            scf.yield %arg3, %arg4, %arg5 : i32, i32, i32
          }
          %35:3 = scf.while (%arg3 = %34#3, %arg4 = %34#4) : (i32, i32) -> (i32, i32, i32) {
            %43 = arith.cmpi sle, %arg4, %29 : i32
            %44:3 = scf.if %43 -> (i32, i32, i32) {
              %45 = arith.index_cast %arg3 : i32 to index
              %46 = arith.index_cast %arg4 : i32 to index
              %47 = memref.load %arg0[%46] : memref<?xi32>
              memref.store %47, %arg1[%45] : memref<?xi32>
              %48 = arith.addi %arg4, %c1_i32 : i32
              %49 = arith.addi %arg3, %c1_i32 : i32
              %50 = llvm.mlir.undef : i32
              scf.yield %49, %48, %50 : i32, i32, i32
            } else {
              scf.yield %arg3, %arg4, %arg3 : i32, i32, i32
            }
            scf.condition(%43) %44#0, %44#1, %44#2 : i32, i32, i32
          } do {
          ^bb0(%arg3: i32, %arg4: i32, %arg5: i32):
            scf.yield %arg3, %arg4 : i32, i32
          }
          %36 = arith.addi %15, %c1_i32 : i32
          %37 = arith.index_cast %36 : i32 to index
          %38 = arith.index_cast %34#1 : i32 to index
          %39 = arith.index_cast %35#2 : i32 to index
          scf.for %arg3 = %38 to %37 step %c1 {
            %43 = arith.subi %arg3, %38 : index
            %44 = arith.addi %39, %43 : index
            %45 = memref.load %arg0[%arg3] : memref<?xi32>
            memref.store %45, %arg1[%44] : memref<?xi32>
          }
          %40 = arith.addi %33, %c2_i32 : i32
          %41 = arith.index_cast %40 : i32 to index
          %42 = arith.index_cast %15 : i32 to index
          scf.for %arg3 = %c0 to %41 step %c1 {
            %43 = arith.subi %42, %arg3 : index
            %44 = memref.load %arg1[%43] : memref<?xi32>
            memref.store %44, %arg0[%43] : memref<?xi32>
          }
        }
        %17 = arith.addi %15, %c1_i32 : i32
        %18 = arith.cmpi sgt, %0, %17 : i32
        scf.if %18 {
          %28 = arith.addi %0, %17 : i32
          %29 = arith.divsi %28, %c2_i32 : i32
          %30 = arith.cmpi sgt, %29, %17 : i32
          scf.if %30 {
            %42 = arith.addi %29, %17 : i32
            %43 = arith.divsi %42, %c2_i32 : i32
            func.call @m_sort(%arg0, %arg1, %17, %43) : (memref<?xi32>, memref<?xi32>, i32, i32) -> ()
            %44 = arith.addi %43, %c1_i32 : i32
            func.call @m_sort(%arg0, %arg1, %44, %29) : (memref<?xi32>, memref<?xi32>, i32, i32) -> ()
            %45 = arith.subi %29, %17 : i32
            %46:5 = scf.while (%arg3 = %17, %arg4 = %44, %arg5 = %17) : (i32, i32, i32) -> (i32, i32, i32, i32, i32) {
              %55 = arith.cmpi sle, %arg5, %43 : i32
              %56 = arith.cmpi sle, %arg4, %29 : i32
              %57 = arith.andi %55, %56 : i1
              %58:5 = scf.if %57 -> (i32, i32, i32, i32, i32) {
                %59 = arith.index_cast %arg5 : i32 to index
                %60 = memref.load %arg0[%59] : memref<?xi32>
                %61 = arith.index_cast %arg4 : i32 to index
                %62 = memref.load %arg0[%61] : memref<?xi32>
                %63 = arith.cmpi sle, %60, %62 : i32
                %64:3 = scf.if %63 -> (i32, i32, i32) {
                  %66 = arith.index_cast %arg3 : i32 to index
                  %67 = memref.load %arg0[%59] : memref<?xi32>
                  memref.store %67, %arg1[%66] : memref<?xi32>
                  %68 = arith.addi %arg3, %c1_i32 : i32
                  %69 = arith.addi %arg5, %c1_i32 : i32
                  scf.yield %68, %arg4, %69 : i32, i32, i32
                } else {
                  %66 = arith.index_cast %arg3 : i32 to index
                  %67 = memref.load %arg0[%61] : memref<?xi32>
                  memref.store %67, %arg1[%66] : memref<?xi32>
                  %68 = arith.addi %arg3, %c1_i32 : i32
                  %69 = arith.addi %arg4, %c1_i32 : i32
                  scf.yield %68, %69, %arg5 : i32, i32, i32
                }
                %65 = llvm.mlir.undef : i32
                scf.yield %64#0, %64#1, %64#2, %65, %65 : i32, i32, i32, i32, i32
              } else {
                scf.yield %arg3, %arg4, %arg5, %arg3, %arg5 : i32, i32, i32, i32, i32
              }
              scf.condition(%57) %58#0, %58#1, %58#2, %58#3, %58#4 : i32, i32, i32, i32, i32
            } do {
            ^bb0(%arg3: i32, %arg4: i32, %arg5: i32, %arg6: i32, %arg7: i32):
              scf.yield %arg3, %arg4, %arg5 : i32, i32, i32
            }
            %47:3 = scf.while (%arg3 = %46#3, %arg4 = %46#4) : (i32, i32) -> (i32, i32, i32) {
              %55 = arith.cmpi sle, %arg4, %43 : i32
              %56:3 = scf.if %55 -> (i32, i32, i32) {
                %57 = arith.index_cast %arg3 : i32 to index
                %58 = arith.index_cast %arg4 : i32 to index
                %59 = memref.load %arg0[%58] : memref<?xi32>
                memref.store %59, %arg1[%57] : memref<?xi32>
                %60 = arith.addi %arg4, %c1_i32 : i32
                %61 = arith.addi %arg3, %c1_i32 : i32
                %62 = llvm.mlir.undef : i32
                scf.yield %61, %60, %62 : i32, i32, i32
              } else {
                scf.yield %arg3, %arg4, %arg3 : i32, i32, i32
              }
              scf.condition(%55) %56#0, %56#1, %56#2 : i32, i32, i32
            } do {
            ^bb0(%arg3: i32, %arg4: i32, %arg5: i32):
              scf.yield %arg3, %arg4 : i32, i32
            }
            %48 = arith.addi %29, %c1_i32 : i32
            %49 = arith.index_cast %48 : i32 to index
            %50 = arith.index_cast %46#1 : i32 to index
            %51 = arith.index_cast %47#2 : i32 to index
            scf.for %arg3 = %50 to %49 step %c1 {
              %55 = arith.subi %arg3, %50 : index
              %56 = arith.addi %51, %55 : index
              %57 = memref.load %arg0[%arg3] : memref<?xi32>
              memref.store %57, %arg1[%56] : memref<?xi32>
            }
            %52 = arith.addi %45, %c2_i32 : i32
            %53 = arith.index_cast %52 : i32 to index
            %54 = arith.index_cast %29 : i32 to index
            scf.for %arg3 = %c0 to %53 step %c1 {
              %55 = arith.subi %54, %arg3 : index
              %56 = memref.load %arg1[%55] : memref<?xi32>
              memref.store %56, %arg0[%55] : memref<?xi32>
            }
          }
          %31 = arith.addi %29, %c1_i32 : i32
          %32 = arith.cmpi sgt, %0, %31 : i32
          scf.if %32 {
            %42 = arith.addi %0, %31 : i32
            %43 = arith.divsi %42, %c2_i32 : i32
            func.call @m_sort(%arg0, %arg1, %31, %43) : (memref<?xi32>, memref<?xi32>, i32, i32) -> ()
            %44 = arith.addi %43, %c1_i32 : i32
            func.call @m_sort(%arg0, %arg1, %44, %0) : (memref<?xi32>, memref<?xi32>, i32, i32) -> ()
            %45 = arith.subi %0, %31 : i32
            %46:5 = scf.while (%arg3 = %31, %arg4 = %44, %arg5 = %31) : (i32, i32, i32) -> (i32, i32, i32, i32, i32) {
              %54 = arith.cmpi sle, %arg5, %43 : i32
              %55 = arith.cmpi sle, %arg4, %0 : i32
              %56 = arith.andi %54, %55 : i1
              %57:5 = scf.if %56 -> (i32, i32, i32, i32, i32) {
                %58 = arith.index_cast %arg5 : i32 to index
                %59 = memref.load %arg0[%58] : memref<?xi32>
                %60 = arith.index_cast %arg4 : i32 to index
                %61 = memref.load %arg0[%60] : memref<?xi32>
                %62 = arith.cmpi sle, %59, %61 : i32
                %63:3 = scf.if %62 -> (i32, i32, i32) {
                  %65 = arith.index_cast %arg3 : i32 to index
                  %66 = memref.load %arg0[%58] : memref<?xi32>
                  memref.store %66, %arg1[%65] : memref<?xi32>
                  %67 = arith.addi %arg3, %c1_i32 : i32
                  %68 = arith.addi %arg5, %c1_i32 : i32
                  scf.yield %67, %arg4, %68 : i32, i32, i32
                } else {
                  %65 = arith.index_cast %arg3 : i32 to index
                  %66 = memref.load %arg0[%60] : memref<?xi32>
                  memref.store %66, %arg1[%65] : memref<?xi32>
                  %67 = arith.addi %arg3, %c1_i32 : i32
                  %68 = arith.addi %arg4, %c1_i32 : i32
                  scf.yield %67, %68, %arg5 : i32, i32, i32
                }
                %64 = llvm.mlir.undef : i32
                scf.yield %63#0, %63#1, %63#2, %64, %64 : i32, i32, i32, i32, i32
              } else {
                scf.yield %arg3, %arg4, %arg5, %arg3, %arg5 : i32, i32, i32, i32, i32
              }
              scf.condition(%56) %57#0, %57#1, %57#2, %57#3, %57#4 : i32, i32, i32, i32, i32
            } do {
            ^bb0(%arg3: i32, %arg4: i32, %arg5: i32, %arg6: i32, %arg7: i32):
              scf.yield %arg3, %arg4, %arg5 : i32, i32, i32
            }
            %47:3 = scf.while (%arg3 = %46#3, %arg4 = %46#4) : (i32, i32) -> (i32, i32, i32) {
              %54 = arith.cmpi sle, %arg4, %43 : i32
              %55:3 = scf.if %54 -> (i32, i32, i32) {
                %56 = arith.index_cast %arg3 : i32 to index
                %57 = arith.index_cast %arg4 : i32 to index
                %58 = memref.load %arg0[%57] : memref<?xi32>
                memref.store %58, %arg1[%56] : memref<?xi32>
                %59 = arith.addi %arg4, %c1_i32 : i32
                %60 = arith.addi %arg3, %c1_i32 : i32
                %61 = llvm.mlir.undef : i32
                scf.yield %60, %59, %61 : i32, i32, i32
              } else {
                scf.yield %arg3, %arg4, %arg3 : i32, i32, i32
              }
              scf.condition(%54) %55#0, %55#1, %55#2 : i32, i32, i32
            } do {
            ^bb0(%arg3: i32, %arg4: i32, %arg5: i32):
              scf.yield %arg3, %arg4 : i32, i32
            }
            %48 = arith.index_cast %arg2 : i32 to index
            %49 = arith.index_cast %46#1 : i32 to index
            %50 = arith.index_cast %47#2 : i32 to index
            scf.for %arg3 = %49 to %48 step %c1 {
              %54 = arith.subi %arg3, %49 : index
              %55 = arith.addi %50, %54 : index
              %56 = memref.load %arg0[%arg3] : memref<?xi32>
              memref.store %56, %arg1[%55] : memref<?xi32>
            }
            %51 = arith.addi %45, %c2_i32 : i32
            %52 = arith.index_cast %51 : i32 to index
            %53 = arith.index_cast %0 : i32 to index
            scf.for %arg3 = %c0 to %52 step %c1 {
              %54 = arith.subi %53, %arg3 : index
              %55 = memref.load %arg1[%54] : memref<?xi32>
              memref.store %55, %arg0[%54] : memref<?xi32>
            }
          }
          %33 = arith.subi %0, %17 : i32
          %34:5 = scf.while (%arg3 = %17, %arg4 = %31, %arg5 = %17) : (i32, i32, i32) -> (i32, i32, i32, i32, i32) {
            %42 = arith.cmpi sle, %arg5, %29 : i32
            %43 = arith.cmpi sle, %arg4, %0 : i32
            %44 = arith.andi %42, %43 : i1
            %45:5 = scf.if %44 -> (i32, i32, i32, i32, i32) {
              %46 = arith.index_cast %arg5 : i32 to index
              %47 = memref.load %arg0[%46] : memref<?xi32>
              %48 = arith.index_cast %arg4 : i32 to index
              %49 = memref.load %arg0[%48] : memref<?xi32>
              %50 = arith.cmpi sle, %47, %49 : i32
              %51:3 = scf.if %50 -> (i32, i32, i32) {
                %53 = arith.index_cast %arg3 : i32 to index
                %54 = memref.load %arg0[%46] : memref<?xi32>
                memref.store %54, %arg1[%53] : memref<?xi32>
                %55 = arith.addi %arg3, %c1_i32 : i32
                %56 = arith.addi %arg5, %c1_i32 : i32
                scf.yield %55, %arg4, %56 : i32, i32, i32
              } else {
                %53 = arith.index_cast %arg3 : i32 to index
                %54 = memref.load %arg0[%48] : memref<?xi32>
                memref.store %54, %arg1[%53] : memref<?xi32>
                %55 = arith.addi %arg3, %c1_i32 : i32
                %56 = arith.addi %arg4, %c1_i32 : i32
                scf.yield %55, %56, %arg5 : i32, i32, i32
              }
              %52 = llvm.mlir.undef : i32
              scf.yield %51#0, %51#1, %51#2, %52, %52 : i32, i32, i32, i32, i32
            } else {
              scf.yield %arg3, %arg4, %arg5, %arg3, %arg5 : i32, i32, i32, i32, i32
            }
            scf.condition(%44) %45#0, %45#1, %45#2, %45#3, %45#4 : i32, i32, i32, i32, i32
          } do {
          ^bb0(%arg3: i32, %arg4: i32, %arg5: i32, %arg6: i32, %arg7: i32):
            scf.yield %arg3, %arg4, %arg5 : i32, i32, i32
          }
          %35:3 = scf.while (%arg3 = %34#3, %arg4 = %34#4) : (i32, i32) -> (i32, i32, i32) {
            %42 = arith.cmpi sle, %arg4, %29 : i32
            %43:3 = scf.if %42 -> (i32, i32, i32) {
              %44 = arith.index_cast %arg3 : i32 to index
              %45 = arith.index_cast %arg4 : i32 to index
              %46 = memref.load %arg0[%45] : memref<?xi32>
              memref.store %46, %arg1[%44] : memref<?xi32>
              %47 = arith.addi %arg4, %c1_i32 : i32
              %48 = arith.addi %arg3, %c1_i32 : i32
              %49 = llvm.mlir.undef : i32
              scf.yield %48, %47, %49 : i32, i32, i32
            } else {
              scf.yield %arg3, %arg4, %arg3 : i32, i32, i32
            }
            scf.condition(%42) %43#0, %43#1, %43#2 : i32, i32, i32
          } do {
          ^bb0(%arg3: i32, %arg4: i32, %arg5: i32):
            scf.yield %arg3, %arg4 : i32, i32
          }
          %36 = arith.index_cast %arg2 : i32 to index
          %37 = arith.index_cast %34#1 : i32 to index
          %38 = arith.index_cast %35#2 : i32 to index
          scf.for %arg3 = %37 to %36 step %c1 {
            %42 = arith.subi %arg3, %37 : index
            %43 = arith.addi %38, %42 : index
            %44 = memref.load %arg0[%arg3] : memref<?xi32>
            memref.store %44, %arg1[%43] : memref<?xi32>
          }
          %39 = arith.addi %33, %c2_i32 : i32
          %40 = arith.index_cast %39 : i32 to index
          %41 = arith.index_cast %0 : i32 to index
          scf.for %arg3 = %c0 to %40 step %c1 {
            %42 = arith.subi %41, %arg3 : index
            %43 = memref.load %arg1[%42] : memref<?xi32>
            memref.store %43, %arg0[%42] : memref<?xi32>
          }
        }
        %19 = arith.subi %0, %4 : i32
        %20:5 = scf.while (%arg3 = %4, %arg4 = %17, %arg5 = %4) : (i32, i32, i32) -> (i32, i32, i32, i32, i32) {
          %28 = arith.cmpi sle, %arg5, %15 : i32
          %29 = arith.cmpi sle, %arg4, %0 : i32
          %30 = arith.andi %28, %29 : i1
          %31:5 = scf.if %30 -> (i32, i32, i32, i32, i32) {
            %32 = arith.index_cast %arg5 : i32 to index
            %33 = memref.load %arg0[%32] : memref<?xi32>
            %34 = arith.index_cast %arg4 : i32 to index
            %35 = memref.load %arg0[%34] : memref<?xi32>
            %36 = arith.cmpi sle, %33, %35 : i32
            %37:3 = scf.if %36 -> (i32, i32, i32) {
              %39 = arith.index_cast %arg3 : i32 to index
              %40 = memref.load %arg0[%32] : memref<?xi32>
              memref.store %40, %arg1[%39] : memref<?xi32>
              %41 = arith.addi %arg3, %c1_i32 : i32
              %42 = arith.addi %arg5, %c1_i32 : i32
              scf.yield %41, %arg4, %42 : i32, i32, i32
            } else {
              %39 = arith.index_cast %arg3 : i32 to index
              %40 = memref.load %arg0[%34] : memref<?xi32>
              memref.store %40, %arg1[%39] : memref<?xi32>
              %41 = arith.addi %arg3, %c1_i32 : i32
              %42 = arith.addi %arg4, %c1_i32 : i32
              scf.yield %41, %42, %arg5 : i32, i32, i32
            }
            %38 = llvm.mlir.undef : i32
            scf.yield %37#0, %37#1, %37#2, %38, %38 : i32, i32, i32, i32, i32
          } else {
            scf.yield %arg3, %arg4, %arg5, %arg3, %arg5 : i32, i32, i32, i32, i32
          }
          scf.condition(%30) %31#0, %31#1, %31#2, %31#3, %31#4 : i32, i32, i32, i32, i32
        } do {
        ^bb0(%arg3: i32, %arg4: i32, %arg5: i32, %arg6: i32, %arg7: i32):
          scf.yield %arg3, %arg4, %arg5 : i32, i32, i32
        }
        %21:3 = scf.while (%arg3 = %20#3, %arg4 = %20#4) : (i32, i32) -> (i32, i32, i32) {
          %28 = arith.cmpi sle, %arg4, %15 : i32
          %29:3 = scf.if %28 -> (i32, i32, i32) {
            %30 = arith.index_cast %arg3 : i32 to index
            %31 = arith.index_cast %arg4 : i32 to index
            %32 = memref.load %arg0[%31] : memref<?xi32>
            memref.store %32, %arg1[%30] : memref<?xi32>
            %33 = arith.addi %arg4, %c1_i32 : i32
            %34 = arith.addi %arg3, %c1_i32 : i32
            %35 = llvm.mlir.undef : i32
            scf.yield %34, %33, %35 : i32, i32, i32
          } else {
            scf.yield %arg3, %arg4, %arg3 : i32, i32, i32
          }
          scf.condition(%28) %29#0, %29#1, %29#2 : i32, i32, i32
        } do {
        ^bb0(%arg3: i32, %arg4: i32, %arg5: i32):
          scf.yield %arg3, %arg4 : i32, i32
        }
        %22 = arith.index_cast %arg2 : i32 to index
        %23 = arith.index_cast %20#1 : i32 to index
        %24 = arith.index_cast %21#2 : i32 to index
        scf.for %arg3 = %23 to %22 step %c1 {
          %28 = arith.subi %arg3, %23 : index
          %29 = arith.addi %24, %28 : index
          %30 = memref.load %arg0[%arg3] : memref<?xi32>
          memref.store %30, %arg1[%29] : memref<?xi32>
        }
        %25 = arith.addi %19, %c2_i32 : i32
        %26 = arith.index_cast %25 : i32 to index
        %27 = arith.index_cast %0 : i32 to index
        scf.for %arg3 = %c0 to %26 step %c1 {
          %28 = arith.subi %27, %arg3 : index
          %29 = memref.load %arg1[%28] : memref<?xi32>
          memref.store %29, %arg0[%28] : memref<?xi32>
        }
      }
      %6:5 = scf.while (%arg3 = %c0_i32, %arg4 = %4, %arg5 = %c0_i32) : (i32, i32, i32) -> (i32, i32, i32, i32, i32) {
        %14 = arith.cmpi sle, %arg5, %2 : i32
        %15 = arith.cmpi sle, %arg4, %0 : i32
        %16 = arith.andi %14, %15 : i1
        %17:5 = scf.if %16 -> (i32, i32, i32, i32, i32) {
          %18 = arith.index_cast %arg5 : i32 to index
          %19 = memref.load %arg0[%18] : memref<?xi32>
          %20 = arith.index_cast %arg4 : i32 to index
          %21 = memref.load %arg0[%20] : memref<?xi32>
          %22 = arith.cmpi sle, %19, %21 : i32
          %23:3 = scf.if %22 -> (i32, i32, i32) {
            %25 = arith.index_cast %arg3 : i32 to index
            %26 = memref.load %arg0[%18] : memref<?xi32>
            memref.store %26, %arg1[%25] : memref<?xi32>
            %27 = arith.addi %arg3, %c1_i32 : i32
            %28 = arith.addi %arg5, %c1_i32 : i32
            scf.yield %27, %arg4, %28 : i32, i32, i32
          } else {
            %25 = arith.index_cast %arg3 : i32 to index
            %26 = memref.load %arg0[%20] : memref<?xi32>
            memref.store %26, %arg1[%25] : memref<?xi32>
            %27 = arith.addi %arg3, %c1_i32 : i32
            %28 = arith.addi %arg4, %c1_i32 : i32
            scf.yield %27, %28, %arg5 : i32, i32, i32
          }
          %24 = llvm.mlir.undef : i32
          scf.yield %23#0, %23#1, %23#2, %24, %24 : i32, i32, i32, i32, i32
        } else {
          scf.yield %arg3, %arg4, %arg5, %arg3, %arg5 : i32, i32, i32, i32, i32
        }
        scf.condition(%16) %17#0, %17#1, %17#2, %17#3, %17#4 : i32, i32, i32, i32, i32
      } do {
      ^bb0(%arg3: i32, %arg4: i32, %arg5: i32, %arg6: i32, %arg7: i32):
        scf.yield %arg3, %arg4, %arg5 : i32, i32, i32
      }
      %7:3 = scf.while (%arg3 = %6#3, %arg4 = %6#4) : (i32, i32) -> (i32, i32, i32) {
        %14 = arith.cmpi sle, %arg4, %2 : i32
        %15:3 = scf.if %14 -> (i32, i32, i32) {
          %16 = arith.index_cast %arg3 : i32 to index
          %17 = arith.index_cast %arg4 : i32 to index
          %18 = memref.load %arg0[%17] : memref<?xi32>
          memref.store %18, %arg1[%16] : memref<?xi32>
          %19 = arith.addi %arg4, %c1_i32 : i32
          %20 = arith.addi %arg3, %c1_i32 : i32
          %21 = llvm.mlir.undef : i32
          scf.yield %20, %19, %21 : i32, i32, i32
        } else {
          scf.yield %arg3, %arg4, %arg3 : i32, i32, i32
        }
        scf.condition(%14) %15#0, %15#1, %15#2 : i32, i32, i32
      } do {
      ^bb0(%arg3: i32, %arg4: i32, %arg5: i32):
        scf.yield %arg3, %arg4 : i32, i32
      }
      %8 = arith.index_cast %arg2 : i32 to index
      %9 = arith.index_cast %6#1 : i32 to index
      %10 = arith.index_cast %7#2 : i32 to index
      scf.for %arg3 = %9 to %8 step %c1 {
        %14 = arith.subi %arg3, %9 : index
        %15 = arith.addi %10, %14 : index
        %16 = memref.load %arg0[%arg3] : memref<?xi32>
        memref.store %16, %arg1[%15] : memref<?xi32>
      }
      %11 = arith.addi %arg2, %c1_i32 : i32
      %12 = arith.index_cast %11 : i32 to index
      %13 = arith.index_cast %0 : i32 to index
      scf.for %arg3 = %c0 to %12 step %c1 {
        %14 = arith.subi %13, %arg3 : index
        %15 = memref.load %arg1[%14] : memref<?xi32>
        memref.store %15, %arg0[%14] : memref<?xi32>
      }
    }
    return
  }
  func.func @main(%arg0: i32, %arg1: memref<?xmemref<?xi8>>) -> i32 attributes {llvm.linkage = #llvm.linkage<external>} {
    %c1 = arith.constant 1 : index
    %c1_i32 = arith.constant 1 : i32
    %c3 = arith.constant 3 : index
    %c3_i32 = arith.constant 3 : i32
    %c2 = arith.constant 2 : index
    %c2_i32 = arith.constant 2 : i32
    %c5 = arith.constant 5 : index
    %c5_i32 = arith.constant 5 : i32
    %c7 = arith.constant 7 : index
    %c7_i32 = arith.constant 7 : i32
    %c6 = arith.constant 6 : index
    %c6_i32 = arith.constant 6 : i32
    %c4 = arith.constant 4 : index
    %c4_i32 = arith.constant 4 : i32
    %c9 = arith.constant 9 : index
    %c9_i32 = arith.constant 9 : i32
    %c11 = arith.constant 11 : index
    %c11_i32 = arith.constant 11 : i32
    %c10 = arith.constant 10 : index
    %c10_i32 = arith.constant 10 : i32
    %c13 = arith.constant 13 : index
    %c13_i32 = arith.constant 13 : i32
    %c15 = arith.constant 15 : index
    %c15_i32 = arith.constant 15 : i32
    %c14 = arith.constant 14 : index
    %c14_i32 = arith.constant 14 : i32
    %c12 = arith.constant 12 : index
    %c12_i32 = arith.constant 12 : i32
    %c8 = arith.constant 8 : index
    %c8_i32 = arith.constant 8 : i32
    %c17 = arith.constant 17 : index
    %c17_i32 = arith.constant 17 : i32
    %c19 = arith.constant 19 : index
    %c19_i32 = arith.constant 19 : i32
    %c18 = arith.constant 18 : index
    %c18_i32 = arith.constant 18 : i32
    %c21 = arith.constant 21 : index
    %c21_i32 = arith.constant 21 : i32
    %c23 = arith.constant 23 : index
    %c23_i32 = arith.constant 23 : i32
    %c22 = arith.constant 22 : index
    %c22_i32 = arith.constant 22 : i32
    %c20 = arith.constant 20 : index
    %c20_i32 = arith.constant 20 : i32
    %c25 = arith.constant 25 : index
    %c25_i32 = arith.constant 25 : i32
    %c27 = arith.constant 27 : index
    %c27_i32 = arith.constant 27 : i32
    %c26 = arith.constant 26 : index
    %c26_i32 = arith.constant 26 : i32
    %c29 = arith.constant 29 : index
    %c29_i32 = arith.constant 29 : i32
    %c31 = arith.constant 31 : index
    %c31_i32 = arith.constant 31 : i32
    %c30 = arith.constant 30 : index
    %c30_i32 = arith.constant 30 : i32
    %c28 = arith.constant 28 : index
    %c28_i32 = arith.constant 28 : i32
    %c24 = arith.constant 24 : index
    %c24_i32 = arith.constant 24 : i32
    %c16 = arith.constant 16 : index
    %c16_i32 = arith.constant 16 : i32
    %c33 = arith.constant 33 : index
    %c33_i32 = arith.constant 33 : i32
    %c35 = arith.constant 35 : index
    %c35_i32 = arith.constant 35 : i32
    %c34 = arith.constant 34 : index
    %c34_i32 = arith.constant 34 : i32
    %c37 = arith.constant 37 : index
    %c37_i32 = arith.constant 37 : i32
    %c39 = arith.constant 39 : index
    %c39_i32 = arith.constant 39 : i32
    %c38 = arith.constant 38 : index
    %c38_i32 = arith.constant 38 : i32
    %c36 = arith.constant 36 : index
    %c36_i32 = arith.constant 36 : i32
    %c41 = arith.constant 41 : index
    %c41_i32 = arith.constant 41 : i32
    %c43 = arith.constant 43 : index
    %c43_i32 = arith.constant 43 : i32
    %c42 = arith.constant 42 : index
    %c42_i32 = arith.constant 42 : i32
    %c45 = arith.constant 45 : index
    %c45_i32 = arith.constant 45 : i32
    %c47 = arith.constant 47 : index
    %c47_i32 = arith.constant 47 : i32
    %c46 = arith.constant 46 : index
    %c46_i32 = arith.constant 46 : i32
    %c44 = arith.constant 44 : index
    %c44_i32 = arith.constant 44 : i32
    %c40 = arith.constant 40 : index
    %c40_i32 = arith.constant 40 : i32
    %c49 = arith.constant 49 : index
    %c49_i32 = arith.constant 49 : i32
    %c51 = arith.constant 51 : index
    %c51_i32 = arith.constant 51 : i32
    %c50 = arith.constant 50 : index
    %c50_i32 = arith.constant 50 : i32
    %c53 = arith.constant 53 : index
    %c53_i32 = arith.constant 53 : i32
    %c55 = arith.constant 55 : index
    %c55_i32 = arith.constant 55 : i32
    %c54 = arith.constant 54 : index
    %c54_i32 = arith.constant 54 : i32
    %c52 = arith.constant 52 : index
    %c52_i32 = arith.constant 52 : i32
    %c57 = arith.constant 57 : index
    %c57_i32 = arith.constant 57 : i32
    %c59 = arith.constant 59 : index
    %c59_i32 = arith.constant 59 : i32
    %c58 = arith.constant 58 : index
    %c58_i32 = arith.constant 58 : i32
    %c61 = arith.constant 61 : index
    %c61_i32 = arith.constant 61 : i32
    %c63 = arith.constant 63 : index
    %c63_i32 = arith.constant 63 : i32
    %c62 = arith.constant 62 : index
    %c62_i32 = arith.constant 62 : i32
    %c60 = arith.constant 60 : index
    %c60_i32 = arith.constant 60 : i32
    %c56 = arith.constant 56 : index
    %c56_i32 = arith.constant 56 : i32
    %c48 = arith.constant 48 : index
    %c48_i32 = arith.constant 48 : i32
    %c32 = arith.constant 32 : index
    %c32_i32 = arith.constant 32 : i32
    %c65 = arith.constant 65 : index
    %c65_i32 = arith.constant 65 : i32
    %c67 = arith.constant 67 : index
    %c67_i32 = arith.constant 67 : i32
    %c66 = arith.constant 66 : index
    %c66_i32 = arith.constant 66 : i32
    %c69 = arith.constant 69 : index
    %c69_i32 = arith.constant 69 : i32
    %c71 = arith.constant 71 : index
    %c71_i32 = arith.constant 71 : i32
    %c70 = arith.constant 70 : index
    %c70_i32 = arith.constant 70 : i32
    %c68 = arith.constant 68 : index
    %c68_i32 = arith.constant 68 : i32
    %c73 = arith.constant 73 : index
    %c73_i32 = arith.constant 73 : i32
    %c75 = arith.constant 75 : index
    %c75_i32 = arith.constant 75 : i32
    %c74 = arith.constant 74 : index
    %c74_i32 = arith.constant 74 : i32
    %c77 = arith.constant 77 : index
    %c77_i32 = arith.constant 77 : i32
    %c79 = arith.constant 79 : index
    %c79_i32 = arith.constant 79 : i32
    %c78 = arith.constant 78 : index
    %c78_i32 = arith.constant 78 : i32
    %c76 = arith.constant 76 : index
    %c76_i32 = arith.constant 76 : i32
    %c72 = arith.constant 72 : index
    %c72_i32 = arith.constant 72 : i32
    %c81 = arith.constant 81 : index
    %c81_i32 = arith.constant 81 : i32
    %c83 = arith.constant 83 : index
    %c83_i32 = arith.constant 83 : i32
    %c82 = arith.constant 82 : index
    %c82_i32 = arith.constant 82 : i32
    %c85 = arith.constant 85 : index
    %c85_i32 = arith.constant 85 : i32
    %c87 = arith.constant 87 : index
    %c87_i32 = arith.constant 87 : i32
    %c86 = arith.constant 86 : index
    %c86_i32 = arith.constant 86 : i32
    %c84 = arith.constant 84 : index
    %c84_i32 = arith.constant 84 : i32
    %c89 = arith.constant 89 : index
    %c89_i32 = arith.constant 89 : i32
    %c91 = arith.constant 91 : index
    %c91_i32 = arith.constant 91 : i32
    %c90 = arith.constant 90 : index
    %c90_i32 = arith.constant 90 : i32
    %c93 = arith.constant 93 : index
    %c93_i32 = arith.constant 93 : i32
    %c95 = arith.constant 95 : index
    %c95_i32 = arith.constant 95 : i32
    %c94 = arith.constant 94 : index
    %c94_i32 = arith.constant 94 : i32
    %c92 = arith.constant 92 : index
    %c92_i32 = arith.constant 92 : i32
    %c88 = arith.constant 88 : index
    %c88_i32 = arith.constant 88 : i32
    %c80 = arith.constant 80 : index
    %c80_i32 = arith.constant 80 : i32
    %c97 = arith.constant 97 : index
    %c97_i32 = arith.constant 97 : i32
    %c99 = arith.constant 99 : index
    %c99_i32 = arith.constant 99 : i32
    %c98 = arith.constant 98 : index
    %c98_i32 = arith.constant 98 : i32
    %c101 = arith.constant 101 : index
    %c101_i32 = arith.constant 101 : i32
    %c103 = arith.constant 103 : index
    %c103_i32 = arith.constant 103 : i32
    %c102 = arith.constant 102 : index
    %c102_i32 = arith.constant 102 : i32
    %c100 = arith.constant 100 : index
    %c100_i32 = arith.constant 100 : i32
    %c105 = arith.constant 105 : index
    %c105_i32 = arith.constant 105 : i32
    %c107 = arith.constant 107 : index
    %c107_i32 = arith.constant 107 : i32
    %c106 = arith.constant 106 : index
    %c106_i32 = arith.constant 106 : i32
    %c109 = arith.constant 109 : index
    %c109_i32 = arith.constant 109 : i32
    %c111 = arith.constant 111 : index
    %c111_i32 = arith.constant 111 : i32
    %c110 = arith.constant 110 : index
    %c110_i32 = arith.constant 110 : i32
    %c108 = arith.constant 108 : index
    %c108_i32 = arith.constant 108 : i32
    %c104 = arith.constant 104 : index
    %c104_i32 = arith.constant 104 : i32
    %c113 = arith.constant 113 : index
    %c113_i32 = arith.constant 113 : i32
    %c115 = arith.constant 115 : index
    %c115_i32 = arith.constant 115 : i32
    %c114 = arith.constant 114 : index
    %c114_i32 = arith.constant 114 : i32
    %c117 = arith.constant 117 : index
    %c117_i32 = arith.constant 117 : i32
    %c119 = arith.constant 119 : index
    %c119_i32 = arith.constant 119 : i32
    %c118 = arith.constant 118 : index
    %c118_i32 = arith.constant 118 : i32
    %c116 = arith.constant 116 : index
    %c116_i32 = arith.constant 116 : i32
    %c121 = arith.constant 121 : index
    %c121_i32 = arith.constant 121 : i32
    %c123 = arith.constant 123 : index
    %c123_i32 = arith.constant 123 : i32
    %c122 = arith.constant 122 : index
    %c122_i32 = arith.constant 122 : i32
    %c125 = arith.constant 125 : index
    %c125_i32 = arith.constant 125 : i32
    %c127 = arith.constant 127 : index
    %c127_i32 = arith.constant 127 : i32
    %c126 = arith.constant 126 : index
    %c126_i32 = arith.constant 126 : i32
    %c124 = arith.constant 124 : index
    %c124_i32 = arith.constant 124 : i32
    %c120 = arith.constant 120 : index
    %c120_i32 = arith.constant 120 : i32
    %c112 = arith.constant 112 : index
    %c112_i32 = arith.constant 112 : i32
    %c96 = arith.constant 96 : index
    %c96_i32 = arith.constant 96 : i32
    %c64 = arith.constant 64 : index
    %c64_i32 = arith.constant 64 : i32
    %c129 = arith.constant 129 : index
    %c129_i32 = arith.constant 129 : i32
    %c131 = arith.constant 131 : index
    %c131_i32 = arith.constant 131 : i32
    %c130 = arith.constant 130 : index
    %c130_i32 = arith.constant 130 : i32
    %c133 = arith.constant 133 : index
    %c133_i32 = arith.constant 133 : i32
    %c135 = arith.constant 135 : index
    %c135_i32 = arith.constant 135 : i32
    %c134 = arith.constant 134 : index
    %c134_i32 = arith.constant 134 : i32
    %c132 = arith.constant 132 : index
    %c132_i32 = arith.constant 132 : i32
    %c137 = arith.constant 137 : index
    %c137_i32 = arith.constant 137 : i32
    %c139 = arith.constant 139 : index
    %c139_i32 = arith.constant 139 : i32
    %c138 = arith.constant 138 : index
    %c138_i32 = arith.constant 138 : i32
    %c141 = arith.constant 141 : index
    %c141_i32 = arith.constant 141 : i32
    %c143 = arith.constant 143 : index
    %c143_i32 = arith.constant 143 : i32
    %c142 = arith.constant 142 : index
    %c142_i32 = arith.constant 142 : i32
    %c140 = arith.constant 140 : index
    %c140_i32 = arith.constant 140 : i32
    %c136 = arith.constant 136 : index
    %c136_i32 = arith.constant 136 : i32
    %c145 = arith.constant 145 : index
    %c145_i32 = arith.constant 145 : i32
    %c147 = arith.constant 147 : index
    %c147_i32 = arith.constant 147 : i32
    %c146 = arith.constant 146 : index
    %c146_i32 = arith.constant 146 : i32
    %c149 = arith.constant 149 : index
    %c149_i32 = arith.constant 149 : i32
    %c151 = arith.constant 151 : index
    %c151_i32 = arith.constant 151 : i32
    %c150 = arith.constant 150 : index
    %c150_i32 = arith.constant 150 : i32
    %c148 = arith.constant 148 : index
    %c148_i32 = arith.constant 148 : i32
    %c153 = arith.constant 153 : index
    %c153_i32 = arith.constant 153 : i32
    %c155 = arith.constant 155 : index
    %c155_i32 = arith.constant 155 : i32
    %c154 = arith.constant 154 : index
    %c154_i32 = arith.constant 154 : i32
    %c157 = arith.constant 157 : index
    %c157_i32 = arith.constant 157 : i32
    %c159 = arith.constant 159 : index
    %c159_i32 = arith.constant 159 : i32
    %c158 = arith.constant 158 : index
    %c158_i32 = arith.constant 158 : i32
    %c156 = arith.constant 156 : index
    %c156_i32 = arith.constant 156 : i32
    %c152 = arith.constant 152 : index
    %c152_i32 = arith.constant 152 : i32
    %c144 = arith.constant 144 : index
    %c144_i32 = arith.constant 144 : i32
    %c161 = arith.constant 161 : index
    %c161_i32 = arith.constant 161 : i32
    %c163 = arith.constant 163 : index
    %c163_i32 = arith.constant 163 : i32
    %c162 = arith.constant 162 : index
    %c162_i32 = arith.constant 162 : i32
    %c165 = arith.constant 165 : index
    %c165_i32 = arith.constant 165 : i32
    %c167 = arith.constant 167 : index
    %c167_i32 = arith.constant 167 : i32
    %c166 = arith.constant 166 : index
    %c166_i32 = arith.constant 166 : i32
    %c164 = arith.constant 164 : index
    %c164_i32 = arith.constant 164 : i32
    %c169 = arith.constant 169 : index
    %c169_i32 = arith.constant 169 : i32
    %c171 = arith.constant 171 : index
    %c171_i32 = arith.constant 171 : i32
    %c170 = arith.constant 170 : index
    %c170_i32 = arith.constant 170 : i32
    %c173 = arith.constant 173 : index
    %c173_i32 = arith.constant 173 : i32
    %c175 = arith.constant 175 : index
    %c175_i32 = arith.constant 175 : i32
    %c174 = arith.constant 174 : index
    %c174_i32 = arith.constant 174 : i32
    %c172 = arith.constant 172 : index
    %c172_i32 = arith.constant 172 : i32
    %c168 = arith.constant 168 : index
    %c168_i32 = arith.constant 168 : i32
    %c177 = arith.constant 177 : index
    %c177_i32 = arith.constant 177 : i32
    %c179 = arith.constant 179 : index
    %c179_i32 = arith.constant 179 : i32
    %c178 = arith.constant 178 : index
    %c178_i32 = arith.constant 178 : i32
    %c181 = arith.constant 181 : index
    %c181_i32 = arith.constant 181 : i32
    %c183 = arith.constant 183 : index
    %c183_i32 = arith.constant 183 : i32
    %c182 = arith.constant 182 : index
    %c182_i32 = arith.constant 182 : i32
    %c180 = arith.constant 180 : index
    %c180_i32 = arith.constant 180 : i32
    %c185 = arith.constant 185 : index
    %c185_i32 = arith.constant 185 : i32
    %c187 = arith.constant 187 : index
    %c187_i32 = arith.constant 187 : i32
    %c186 = arith.constant 186 : index
    %c186_i32 = arith.constant 186 : i32
    %c189 = arith.constant 189 : index
    %c189_i32 = arith.constant 189 : i32
    %c191 = arith.constant 191 : index
    %c191_i32 = arith.constant 191 : i32
    %c190 = arith.constant 190 : index
    %c190_i32 = arith.constant 190 : i32
    %c188 = arith.constant 188 : index
    %c188_i32 = arith.constant 188 : i32
    %c184 = arith.constant 184 : index
    %c184_i32 = arith.constant 184 : i32
    %c176 = arith.constant 176 : index
    %c176_i32 = arith.constant 176 : i32
    %c160 = arith.constant 160 : index
    %c160_i32 = arith.constant 160 : i32
    %c193 = arith.constant 193 : index
    %c193_i32 = arith.constant 193 : i32
    %c195 = arith.constant 195 : index
    %c195_i32 = arith.constant 195 : i32
    %c194 = arith.constant 194 : index
    %c194_i32 = arith.constant 194 : i32
    %c197 = arith.constant 197 : index
    %c197_i32 = arith.constant 197 : i32
    %c199 = arith.constant 199 : index
    %c199_i32 = arith.constant 199 : i32
    %c198 = arith.constant 198 : index
    %c198_i32 = arith.constant 198 : i32
    %c196 = arith.constant 196 : index
    %c196_i32 = arith.constant 196 : i32
    %c201 = arith.constant 201 : index
    %c201_i32 = arith.constant 201 : i32
    %c203 = arith.constant 203 : index
    %c203_i32 = arith.constant 203 : i32
    %c202 = arith.constant 202 : index
    %c202_i32 = arith.constant 202 : i32
    %c205 = arith.constant 205 : index
    %c205_i32 = arith.constant 205 : i32
    %c207 = arith.constant 207 : index
    %c207_i32 = arith.constant 207 : i32
    %c206 = arith.constant 206 : index
    %c206_i32 = arith.constant 206 : i32
    %c204 = arith.constant 204 : index
    %c204_i32 = arith.constant 204 : i32
    %c200 = arith.constant 200 : index
    %c200_i32 = arith.constant 200 : i32
    %c209 = arith.constant 209 : index
    %c209_i32 = arith.constant 209 : i32
    %c211 = arith.constant 211 : index
    %c211_i32 = arith.constant 211 : i32
    %c210 = arith.constant 210 : index
    %c210_i32 = arith.constant 210 : i32
    %c213 = arith.constant 213 : index
    %c213_i32 = arith.constant 213 : i32
    %c215 = arith.constant 215 : index
    %c215_i32 = arith.constant 215 : i32
    %c214 = arith.constant 214 : index
    %c214_i32 = arith.constant 214 : i32
    %c212 = arith.constant 212 : index
    %c212_i32 = arith.constant 212 : i32
    %c217 = arith.constant 217 : index
    %c217_i32 = arith.constant 217 : i32
    %c219 = arith.constant 219 : index
    %c219_i32 = arith.constant 219 : i32
    %c218 = arith.constant 218 : index
    %c218_i32 = arith.constant 218 : i32
    %c221 = arith.constant 221 : index
    %c221_i32 = arith.constant 221 : i32
    %c223 = arith.constant 223 : index
    %c223_i32 = arith.constant 223 : i32
    %c222 = arith.constant 222 : index
    %c222_i32 = arith.constant 222 : i32
    %c220 = arith.constant 220 : index
    %c220_i32 = arith.constant 220 : i32
    %c216 = arith.constant 216 : index
    %c216_i32 = arith.constant 216 : i32
    %c208 = arith.constant 208 : index
    %c208_i32 = arith.constant 208 : i32
    %c225 = arith.constant 225 : index
    %c225_i32 = arith.constant 225 : i32
    %c227 = arith.constant 227 : index
    %c227_i32 = arith.constant 227 : i32
    %c226 = arith.constant 226 : index
    %c226_i32 = arith.constant 226 : i32
    %c229 = arith.constant 229 : index
    %c229_i32 = arith.constant 229 : i32
    %c231 = arith.constant 231 : index
    %c231_i32 = arith.constant 231 : i32
    %c230 = arith.constant 230 : index
    %c230_i32 = arith.constant 230 : i32
    %c228 = arith.constant 228 : index
    %c228_i32 = arith.constant 228 : i32
    %c233 = arith.constant 233 : index
    %c233_i32 = arith.constant 233 : i32
    %c235 = arith.constant 235 : index
    %c235_i32 = arith.constant 235 : i32
    %c234 = arith.constant 234 : index
    %c234_i32 = arith.constant 234 : i32
    %c237 = arith.constant 237 : index
    %c237_i32 = arith.constant 237 : i32
    %c239 = arith.constant 239 : index
    %c239_i32 = arith.constant 239 : i32
    %c238 = arith.constant 238 : index
    %c238_i32 = arith.constant 238 : i32
    %c236 = arith.constant 236 : index
    %c236_i32 = arith.constant 236 : i32
    %c232 = arith.constant 232 : index
    %c232_i32 = arith.constant 232 : i32
    %c241 = arith.constant 241 : index
    %c241_i32 = arith.constant 241 : i32
    %c243 = arith.constant 243 : index
    %c243_i32 = arith.constant 243 : i32
    %c242 = arith.constant 242 : index
    %c242_i32 = arith.constant 242 : i32
    %c245 = arith.constant 245 : index
    %c245_i32 = arith.constant 245 : i32
    %c247 = arith.constant 247 : index
    %c247_i32 = arith.constant 247 : i32
    %c246 = arith.constant 246 : index
    %c246_i32 = arith.constant 246 : i32
    %c244 = arith.constant 244 : index
    %c244_i32 = arith.constant 244 : i32
    %c249 = arith.constant 249 : index
    %c249_i32 = arith.constant 249 : i32
    %c251 = arith.constant 251 : index
    %c251_i32 = arith.constant 251 : i32
    %c250 = arith.constant 250 : index
    %c250_i32 = arith.constant 250 : i32
    %c253 = arith.constant 253 : index
    %c253_i32 = arith.constant 253 : i32
    %c255 = arith.constant 255 : index
    %c255_i32 = arith.constant 255 : i32
    %c254 = arith.constant 254 : index
    %c254_i32 = arith.constant 254 : i32
    %c252 = arith.constant 252 : index
    %c252_i32 = arith.constant 252 : i32
    %c248 = arith.constant 248 : index
    %c248_i32 = arith.constant 248 : i32
    %c240 = arith.constant 240 : index
    %c240_i32 = arith.constant 240 : i32
    %c224 = arith.constant 224 : index
    %c224_i32 = arith.constant 224 : i32
    %c192 = arith.constant 192 : index
    %c192_i32 = arith.constant 192 : i32
    %c128 = arith.constant 128 : index
    %c128_i32 = arith.constant 128 : i32
    %c0_i64 = arith.constant 0 : i64
    %c256 = arith.constant 256 : index
    %c257 = arith.constant 257 : index
    %c0_i32 = arith.constant 0 : i32
    %c0 = arith.constant 0 : index
    %0 = llvm.mlir.undef : i32
    %1 = memref.get_global @randArr : memref<4096xi32>
    %cast = memref.cast %1 : memref<4096xi32> to memref<?xi32>
    %2 = memref.get_global @temp : memref<256xi32>
    %cast_0 = memref.cast %2 : memref<256xi32> to memref<?xi32>
    call @m_sort(%cast, %cast_0, %c0_i32, %c0_i32) : (memref<?xi32>, memref<?xi32>, i32, i32) -> ()
    call @m_sort(%cast, %cast_0, %c1_i32, %c1_i32) : (memref<?xi32>, memref<?xi32>, i32, i32) -> ()
    %3:3 = scf.while (%arg2 = %c0_i32, %arg3 = %c1_i32, %arg4 = %c0_i32) : (i32, i32, i32) -> (i32, i32, i32) {
      %1281 = arith.cmpi sle, %arg4, %c0_i32 : i32
      %1282 = arith.cmpi sle, %arg3, %c1_i32 : i32
      %1283 = arith.andi %1281, %1282 : i1
      scf.condition(%1283) %arg3, %arg2, %arg4 : i32, i32, i32
    } do {
    ^bb0(%arg2: i32, %arg3: i32, %arg4: i32):
      %1281 = arith.index_cast %arg4 : i32 to index
      %1282 = memref.load %1[%1281] : memref<4096xi32>
      %1283 = arith.index_cast %arg2 : i32 to index
      %1284 = memref.load %1[%1283] : memref<4096xi32>
      %1285 = arith.cmpi sle, %1282, %1284 : i32
      %1286:3 = scf.if %1285 -> (i32, i32, i32) {
        %1287 = arith.index_cast %arg3 : i32 to index
        memref.store %1282, %2[%1287] : memref<256xi32>
        %1288 = arith.addi %arg3, %c1_i32 : i32
        %1289 = arith.addi %arg4, %c1_i32 : i32
        scf.yield %1288, %arg2, %1289 : i32, i32, i32
      } else {
        %1287 = arith.index_cast %arg3 : i32 to index
        memref.store %1284, %2[%1287] : memref<256xi32>
        %1288 = arith.addi %arg3, %c1_i32 : i32
        %1289 = arith.addi %arg2, %c1_i32 : i32
        scf.yield %1288, %1289, %arg4 : i32, i32, i32
      }
      scf.yield %1286#0, %1286#1, %1286#2 : i32, i32, i32
    }
    %4 = arith.index_cast %3#2 : i32 to index
    %5:3 = scf.for %arg2 = %4 to %c1 step %c1 iter_args(%arg3 = %3#1, %arg4 = %3#2, %arg5 = %3#1) -> (i32, i32, i32) {
      %1281 = arith.index_cast %arg3 : i32 to index
      %1282 = arith.index_cast %arg4 : i32 to index
      %1283 = memref.load %1[%1282] : memref<4096xi32>
      memref.store %1283, %2[%1281] : memref<256xi32>
      %1284 = arith.addi %arg4, %c1_i32 : i32
      %1285 = arith.addi %arg3, %c1_i32 : i32
      scf.yield %1285, %1284, %1285 : i32, i32, i32
    }
    %6 = arith.index_cast %3#0 : i32 to index
    %7 = arith.index_cast %5#2 : i32 to index
    scf.for %arg2 = %6 to %c2 step %c1 {
      %1281 = arith.subi %arg2, %6 : index
      %1282 = arith.addi %7, %1281 : index
      %1283 = memref.load %1[%arg2] : memref<4096xi32>
      memref.store %1283, %2[%1282] : memref<256xi32>
    }
    scf.for %arg2 = %c0 to %c3 step %c1 {
      %1281 = arith.subi %c1, %arg2 : index
      %1282 = memref.load %2[%1281] : memref<256xi32>
      memref.store %1282, %1[%1281] : memref<4096xi32>
    }
    call @m_sort(%cast, %cast_0, %c2_i32, %c2_i32) : (memref<?xi32>, memref<?xi32>, i32, i32) -> ()
    call @m_sort(%cast, %cast_0, %c3_i32, %c3_i32) : (memref<?xi32>, memref<?xi32>, i32, i32) -> ()
    %8:3 = scf.while (%arg2 = %c2_i32, %arg3 = %c3_i32, %arg4 = %c2_i32) : (i32, i32, i32) -> (i32, i32, i32) {
      %1281 = arith.cmpi sle, %arg4, %c2_i32 : i32
      %1282 = arith.cmpi sle, %arg3, %c3_i32 : i32
      %1283 = arith.andi %1281, %1282 : i1
      scf.condition(%1283) %arg3, %arg2, %arg4 : i32, i32, i32
    } do {
    ^bb0(%arg2: i32, %arg3: i32, %arg4: i32):
      %1281 = arith.index_cast %arg4 : i32 to index
      %1282 = memref.load %1[%1281] : memref<4096xi32>
      %1283 = arith.index_cast %arg2 : i32 to index
      %1284 = memref.load %1[%1283] : memref<4096xi32>
      %1285 = arith.cmpi sle, %1282, %1284 : i32
      %1286:3 = scf.if %1285 -> (i32, i32, i32) {
        %1287 = arith.index_cast %arg3 : i32 to index
        memref.store %1282, %2[%1287] : memref<256xi32>
        %1288 = arith.addi %arg3, %c1_i32 : i32
        %1289 = arith.addi %arg4, %c1_i32 : i32
        scf.yield %1288, %arg2, %1289 : i32, i32, i32
      } else {
        %1287 = arith.index_cast %arg3 : i32 to index
        memref.store %1284, %2[%1287] : memref<256xi32>
        %1288 = arith.addi %arg3, %c1_i32 : i32
        %1289 = arith.addi %arg2, %c1_i32 : i32
        scf.yield %1288, %1289, %arg4 : i32, i32, i32
      }
      scf.yield %1286#0, %1286#1, %1286#2 : i32, i32, i32
    }
    %9 = arith.index_cast %8#2 : i32 to index
    %10:3 = scf.for %arg2 = %9 to %c3 step %c1 iter_args(%arg3 = %8#1, %arg4 = %8#2, %arg5 = %8#1) -> (i32, i32, i32) {
      %1281 = arith.index_cast %arg3 : i32 to index
      %1282 = arith.index_cast %arg4 : i32 to index
      %1283 = memref.load %1[%1282] : memref<4096xi32>
      memref.store %1283, %2[%1281] : memref<256xi32>
      %1284 = arith.addi %arg4, %c1_i32 : i32
      %1285 = arith.addi %arg3, %c1_i32 : i32
      scf.yield %1285, %1284, %1285 : i32, i32, i32
    }
    %11 = arith.index_cast %8#0 : i32 to index
    %12 = arith.index_cast %10#2 : i32 to index
    scf.for %arg2 = %11 to %c4 step %c1 {
      %1281 = arith.subi %arg2, %11 : index
      %1282 = arith.addi %12, %1281 : index
      %1283 = memref.load %1[%arg2] : memref<4096xi32>
      memref.store %1283, %2[%1282] : memref<256xi32>
    }
    scf.for %arg2 = %c0 to %c3 step %c1 {
      %1281 = arith.subi %c3, %arg2 : index
      %1282 = memref.load %2[%1281] : memref<256xi32>
      memref.store %1282, %1[%1281] : memref<4096xi32>
    }
    %13:3 = scf.while (%arg2 = %c0_i32, %arg3 = %c2_i32, %arg4 = %c0_i32) : (i32, i32, i32) -> (i32, i32, i32) {
      %1281 = arith.cmpi sle, %arg4, %c1_i32 : i32
      %1282 = arith.cmpi sle, %arg3, %c3_i32 : i32
      %1283 = arith.andi %1281, %1282 : i1
      scf.condition(%1283) %arg3, %arg2, %arg4 : i32, i32, i32
    } do {
    ^bb0(%arg2: i32, %arg3: i32, %arg4: i32):
      %1281 = arith.index_cast %arg4 : i32 to index
      %1282 = memref.load %1[%1281] : memref<4096xi32>
      %1283 = arith.index_cast %arg2 : i32 to index
      %1284 = memref.load %1[%1283] : memref<4096xi32>
      %1285 = arith.cmpi sle, %1282, %1284 : i32
      %1286:3 = scf.if %1285 -> (i32, i32, i32) {
        %1287 = arith.index_cast %arg3 : i32 to index
        memref.store %1282, %2[%1287] : memref<256xi32>
        %1288 = arith.addi %arg3, %c1_i32 : i32
        %1289 = arith.addi %arg4, %c1_i32 : i32
        scf.yield %1288, %arg2, %1289 : i32, i32, i32
      } else {
        %1287 = arith.index_cast %arg3 : i32 to index
        memref.store %1284, %2[%1287] : memref<256xi32>
        %1288 = arith.addi %arg3, %c1_i32 : i32
        %1289 = arith.addi %arg2, %c1_i32 : i32
        scf.yield %1288, %1289, %arg4 : i32, i32, i32
      }
      scf.yield %1286#0, %1286#1, %1286#2 : i32, i32, i32
    }
    %14 = arith.index_cast %13#2 : i32 to index
    %15:3 = scf.for %arg2 = %14 to %c2 step %c1 iter_args(%arg3 = %13#1, %arg4 = %13#2, %arg5 = %13#1) -> (i32, i32, i32) {
      %1281 = arith.index_cast %arg3 : i32 to index
      %1282 = arith.index_cast %arg4 : i32 to index
      %1283 = memref.load %1[%1282] : memref<4096xi32>
      memref.store %1283, %2[%1281] : memref<256xi32>
      %1284 = arith.addi %arg4, %c1_i32 : i32
      %1285 = arith.addi %arg3, %c1_i32 : i32
      scf.yield %1285, %1284, %1285 : i32, i32, i32
    }
    %16 = arith.index_cast %13#0 : i32 to index
    %17 = arith.index_cast %15#2 : i32 to index
    scf.for %arg2 = %16 to %c4 step %c1 {
      %1281 = arith.subi %arg2, %16 : index
      %1282 = arith.addi %17, %1281 : index
      %1283 = memref.load %1[%arg2] : memref<4096xi32>
      memref.store %1283, %2[%1282] : memref<256xi32>
    }
    scf.for %arg2 = %c0 to %c5 step %c1 {
      %1281 = arith.subi %c3, %arg2 : index
      %1282 = memref.load %2[%1281] : memref<256xi32>
      memref.store %1282, %1[%1281] : memref<4096xi32>
    }
    call @m_sort(%cast, %cast_0, %c4_i32, %c4_i32) : (memref<?xi32>, memref<?xi32>, i32, i32) -> ()
    call @m_sort(%cast, %cast_0, %c5_i32, %c5_i32) : (memref<?xi32>, memref<?xi32>, i32, i32) -> ()
    %18:3 = scf.while (%arg2 = %c4_i32, %arg3 = %c5_i32, %arg4 = %c4_i32) : (i32, i32, i32) -> (i32, i32, i32) {
      %1281 = arith.cmpi sle, %arg4, %c4_i32 : i32
      %1282 = arith.cmpi sle, %arg3, %c5_i32 : i32
      %1283 = arith.andi %1281, %1282 : i1
      scf.condition(%1283) %arg3, %arg2, %arg4 : i32, i32, i32
    } do {
    ^bb0(%arg2: i32, %arg3: i32, %arg4: i32):
      %1281 = arith.index_cast %arg4 : i32 to index
      %1282 = memref.load %1[%1281] : memref<4096xi32>
      %1283 = arith.index_cast %arg2 : i32 to index
      %1284 = memref.load %1[%1283] : memref<4096xi32>
      %1285 = arith.cmpi sle, %1282, %1284 : i32
      %1286:3 = scf.if %1285 -> (i32, i32, i32) {
        %1287 = arith.index_cast %arg3 : i32 to index
        memref.store %1282, %2[%1287] : memref<256xi32>
        %1288 = arith.addi %arg3, %c1_i32 : i32
        %1289 = arith.addi %arg4, %c1_i32 : i32
        scf.yield %1288, %arg2, %1289 : i32, i32, i32
      } else {
        %1287 = arith.index_cast %arg3 : i32 to index
        memref.store %1284, %2[%1287] : memref<256xi32>
        %1288 = arith.addi %arg3, %c1_i32 : i32
        %1289 = arith.addi %arg2, %c1_i32 : i32
        scf.yield %1288, %1289, %arg4 : i32, i32, i32
      }
      scf.yield %1286#0, %1286#1, %1286#2 : i32, i32, i32
    }
    %19 = arith.index_cast %18#2 : i32 to index
    %20:3 = scf.for %arg2 = %19 to %c5 step %c1 iter_args(%arg3 = %18#1, %arg4 = %18#2, %arg5 = %18#1) -> (i32, i32, i32) {
      %1281 = arith.index_cast %arg3 : i32 to index
      %1282 = arith.index_cast %arg4 : i32 to index
      %1283 = memref.load %1[%1282] : memref<4096xi32>
      memref.store %1283, %2[%1281] : memref<256xi32>
      %1284 = arith.addi %arg4, %c1_i32 : i32
      %1285 = arith.addi %arg3, %c1_i32 : i32
      scf.yield %1285, %1284, %1285 : i32, i32, i32
    }
    %21 = arith.index_cast %18#0 : i32 to index
    %22 = arith.index_cast %20#2 : i32 to index
    scf.for %arg2 = %21 to %c6 step %c1 {
      %1281 = arith.subi %arg2, %21 : index
      %1282 = arith.addi %22, %1281 : index
      %1283 = memref.load %1[%arg2] : memref<4096xi32>
      memref.store %1283, %2[%1282] : memref<256xi32>
    }
    scf.for %arg2 = %c0 to %c3 step %c1 {
      %1281 = arith.subi %c5, %arg2 : index
      %1282 = memref.load %2[%1281] : memref<256xi32>
      memref.store %1282, %1[%1281] : memref<4096xi32>
    }
    call @m_sort(%cast, %cast_0, %c6_i32, %c6_i32) : (memref<?xi32>, memref<?xi32>, i32, i32) -> ()
    call @m_sort(%cast, %cast_0, %c7_i32, %c7_i32) : (memref<?xi32>, memref<?xi32>, i32, i32) -> ()
    %23:3 = scf.while (%arg2 = %c6_i32, %arg3 = %c7_i32, %arg4 = %c6_i32) : (i32, i32, i32) -> (i32, i32, i32) {
      %1281 = arith.cmpi sle, %arg4, %c6_i32 : i32
      %1282 = arith.cmpi sle, %arg3, %c7_i32 : i32
      %1283 = arith.andi %1281, %1282 : i1
      scf.condition(%1283) %arg3, %arg2, %arg4 : i32, i32, i32
    } do {
    ^bb0(%arg2: i32, %arg3: i32, %arg4: i32):
      %1281 = arith.index_cast %arg4 : i32 to index
      %1282 = memref.load %1[%1281] : memref<4096xi32>
      %1283 = arith.index_cast %arg2 : i32 to index
      %1284 = memref.load %1[%1283] : memref<4096xi32>
      %1285 = arith.cmpi sle, %1282, %1284 : i32
      %1286:3 = scf.if %1285 -> (i32, i32, i32) {
        %1287 = arith.index_cast %arg3 : i32 to index
        memref.store %1282, %2[%1287] : memref<256xi32>
        %1288 = arith.addi %arg3, %c1_i32 : i32
        %1289 = arith.addi %arg4, %c1_i32 : i32
        scf.yield %1288, %arg2, %1289 : i32, i32, i32
      } else {
        %1287 = arith.index_cast %arg3 : i32 to index
        memref.store %1284, %2[%1287] : memref<256xi32>
        %1288 = arith.addi %arg3, %c1_i32 : i32
        %1289 = arith.addi %arg2, %c1_i32 : i32
        scf.yield %1288, %1289, %arg4 : i32, i32, i32
      }
      scf.yield %1286#0, %1286#1, %1286#2 : i32, i32, i32
    }
    %24 = arith.index_cast %23#2 : i32 to index
    %25:3 = scf.for %arg2 = %24 to %c7 step %c1 iter_args(%arg3 = %23#1, %arg4 = %23#2, %arg5 = %23#1) -> (i32, i32, i32) {
      %1281 = arith.index_cast %arg3 : i32 to index
      %1282 = arith.index_cast %arg4 : i32 to index
      %1283 = memref.load %1[%1282] : memref<4096xi32>
      memref.store %1283, %2[%1281] : memref<256xi32>
      %1284 = arith.addi %arg4, %c1_i32 : i32
      %1285 = arith.addi %arg3, %c1_i32 : i32
      scf.yield %1285, %1284, %1285 : i32, i32, i32
    }
    %26 = arith.index_cast %23#0 : i32 to index
    %27 = arith.index_cast %25#2 : i32 to index
    scf.for %arg2 = %26 to %c8 step %c1 {
      %1281 = arith.subi %arg2, %26 : index
      %1282 = arith.addi %27, %1281 : index
      %1283 = memref.load %1[%arg2] : memref<4096xi32>
      memref.store %1283, %2[%1282] : memref<256xi32>
    }
    scf.for %arg2 = %c0 to %c3 step %c1 {
      %1281 = arith.subi %c7, %arg2 : index
      %1282 = memref.load %2[%1281] : memref<256xi32>
      memref.store %1282, %1[%1281] : memref<4096xi32>
    }
    %28:3 = scf.while (%arg2 = %c4_i32, %arg3 = %c6_i32, %arg4 = %c4_i32) : (i32, i32, i32) -> (i32, i32, i32) {
      %1281 = arith.cmpi sle, %arg4, %c5_i32 : i32
      %1282 = arith.cmpi sle, %arg3, %c7_i32 : i32
      %1283 = arith.andi %1281, %1282 : i1
      scf.condition(%1283) %arg3, %arg2, %arg4 : i32, i32, i32
    } do {
    ^bb0(%arg2: i32, %arg3: i32, %arg4: i32):
      %1281 = arith.index_cast %arg4 : i32 to index
      %1282 = memref.load %1[%1281] : memref<4096xi32>
      %1283 = arith.index_cast %arg2 : i32 to index
      %1284 = memref.load %1[%1283] : memref<4096xi32>
      %1285 = arith.cmpi sle, %1282, %1284 : i32
      %1286:3 = scf.if %1285 -> (i32, i32, i32) {
        %1287 = arith.index_cast %arg3 : i32 to index
        memref.store %1282, %2[%1287] : memref<256xi32>
        %1288 = arith.addi %arg3, %c1_i32 : i32
        %1289 = arith.addi %arg4, %c1_i32 : i32
        scf.yield %1288, %arg2, %1289 : i32, i32, i32
      } else {
        %1287 = arith.index_cast %arg3 : i32 to index
        memref.store %1284, %2[%1287] : memref<256xi32>
        %1288 = arith.addi %arg3, %c1_i32 : i32
        %1289 = arith.addi %arg2, %c1_i32 : i32
        scf.yield %1288, %1289, %arg4 : i32, i32, i32
      }
      scf.yield %1286#0, %1286#1, %1286#2 : i32, i32, i32
    }
    %29 = arith.index_cast %28#2 : i32 to index
    %30:3 = scf.for %arg2 = %29 to %c6 step %c1 iter_args(%arg3 = %28#1, %arg4 = %28#2, %arg5 = %28#1) -> (i32, i32, i32) {
      %1281 = arith.index_cast %arg3 : i32 to index
      %1282 = arith.index_cast %arg4 : i32 to index
      %1283 = memref.load %1[%1282] : memref<4096xi32>
      memref.store %1283, %2[%1281] : memref<256xi32>
      %1284 = arith.addi %arg4, %c1_i32 : i32
      %1285 = arith.addi %arg3, %c1_i32 : i32
      scf.yield %1285, %1284, %1285 : i32, i32, i32
    }
    %31 = arith.index_cast %28#0 : i32 to index
    %32 = arith.index_cast %30#2 : i32 to index
    scf.for %arg2 = %31 to %c8 step %c1 {
      %1281 = arith.subi %arg2, %31 : index
      %1282 = arith.addi %32, %1281 : index
      %1283 = memref.load %1[%arg2] : memref<4096xi32>
      memref.store %1283, %2[%1282] : memref<256xi32>
    }
    scf.for %arg2 = %c0 to %c5 step %c1 {
      %1281 = arith.subi %c7, %arg2 : index
      %1282 = memref.load %2[%1281] : memref<256xi32>
      memref.store %1282, %1[%1281] : memref<4096xi32>
    }
    %33:3 = scf.while (%arg2 = %c0_i32, %arg3 = %c4_i32, %arg4 = %c0_i32) : (i32, i32, i32) -> (i32, i32, i32) {
      %1281 = arith.cmpi sle, %arg4, %c3_i32 : i32
      %1282 = arith.cmpi sle, %arg3, %c7_i32 : i32
      %1283 = arith.andi %1281, %1282 : i1
      scf.condition(%1283) %arg3, %arg2, %arg4 : i32, i32, i32
    } do {
    ^bb0(%arg2: i32, %arg3: i32, %arg4: i32):
      %1281 = arith.index_cast %arg4 : i32 to index
      %1282 = memref.load %1[%1281] : memref<4096xi32>
      %1283 = arith.index_cast %arg2 : i32 to index
      %1284 = memref.load %1[%1283] : memref<4096xi32>
      %1285 = arith.cmpi sle, %1282, %1284 : i32
      %1286:3 = scf.if %1285 -> (i32, i32, i32) {
        %1287 = arith.index_cast %arg3 : i32 to index
        memref.store %1282, %2[%1287] : memref<256xi32>
        %1288 = arith.addi %arg3, %c1_i32 : i32
        %1289 = arith.addi %arg4, %c1_i32 : i32
        scf.yield %1288, %arg2, %1289 : i32, i32, i32
      } else {
        %1287 = arith.index_cast %arg3 : i32 to index
        memref.store %1284, %2[%1287] : memref<256xi32>
        %1288 = arith.addi %arg3, %c1_i32 : i32
        %1289 = arith.addi %arg2, %c1_i32 : i32
        scf.yield %1288, %1289, %arg4 : i32, i32, i32
      }
      scf.yield %1286#0, %1286#1, %1286#2 : i32, i32, i32
    }
    %34 = arith.index_cast %33#2 : i32 to index
    %35:3 = scf.for %arg2 = %34 to %c4 step %c1 iter_args(%arg3 = %33#1, %arg4 = %33#2, %arg5 = %33#1) -> (i32, i32, i32) {
      %1281 = arith.index_cast %arg3 : i32 to index
      %1282 = arith.index_cast %arg4 : i32 to index
      %1283 = memref.load %1[%1282] : memref<4096xi32>
      memref.store %1283, %2[%1281] : memref<256xi32>
      %1284 = arith.addi %arg4, %c1_i32 : i32
      %1285 = arith.addi %arg3, %c1_i32 : i32
      scf.yield %1285, %1284, %1285 : i32, i32, i32
    }
    %36 = arith.index_cast %33#0 : i32 to index
    %37 = arith.index_cast %35#2 : i32 to index
    scf.for %arg2 = %36 to %c8 step %c1 {
      %1281 = arith.subi %arg2, %36 : index
      %1282 = arith.addi %37, %1281 : index
      %1283 = memref.load %1[%arg2] : memref<4096xi32>
      memref.store %1283, %2[%1282] : memref<256xi32>
    }
    scf.for %arg2 = %c0 to %c9 step %c1 {
      %1281 = arith.subi %c7, %arg2 : index
      %1282 = memref.load %2[%1281] : memref<256xi32>
      memref.store %1282, %1[%1281] : memref<4096xi32>
    }
    call @m_sort(%cast, %cast_0, %c8_i32, %c8_i32) : (memref<?xi32>, memref<?xi32>, i32, i32) -> ()
    call @m_sort(%cast, %cast_0, %c9_i32, %c9_i32) : (memref<?xi32>, memref<?xi32>, i32, i32) -> ()
    %38:3 = scf.while (%arg2 = %c8_i32, %arg3 = %c9_i32, %arg4 = %c8_i32) : (i32, i32, i32) -> (i32, i32, i32) {
      %1281 = arith.cmpi sle, %arg4, %c8_i32 : i32
      %1282 = arith.cmpi sle, %arg3, %c9_i32 : i32
      %1283 = arith.andi %1281, %1282 : i1
      scf.condition(%1283) %arg3, %arg2, %arg4 : i32, i32, i32
    } do {
    ^bb0(%arg2: i32, %arg3: i32, %arg4: i32):
      %1281 = arith.index_cast %arg4 : i32 to index
      %1282 = memref.load %1[%1281] : memref<4096xi32>
      %1283 = arith.index_cast %arg2 : i32 to index
      %1284 = memref.load %1[%1283] : memref<4096xi32>
      %1285 = arith.cmpi sle, %1282, %1284 : i32
      %1286:3 = scf.if %1285 -> (i32, i32, i32) {
        %1287 = arith.index_cast %arg3 : i32 to index
        memref.store %1282, %2[%1287] : memref<256xi32>
        %1288 = arith.addi %arg3, %c1_i32 : i32
        %1289 = arith.addi %arg4, %c1_i32 : i32
        scf.yield %1288, %arg2, %1289 : i32, i32, i32
      } else {
        %1287 = arith.index_cast %arg3 : i32 to index
        memref.store %1284, %2[%1287] : memref<256xi32>
        %1288 = arith.addi %arg3, %c1_i32 : i32
        %1289 = arith.addi %arg2, %c1_i32 : i32
        scf.yield %1288, %1289, %arg4 : i32, i32, i32
      }
      scf.yield %1286#0, %1286#1, %1286#2 : i32, i32, i32
    }
    %39 = arith.index_cast %38#2 : i32 to index
    %40:3 = scf.for %arg2 = %39 to %c9 step %c1 iter_args(%arg3 = %38#1, %arg4 = %38#2, %arg5 = %38#1) -> (i32, i32, i32) {
      %1281 = arith.index_cast %arg3 : i32 to index
      %1282 = arith.index_cast %arg4 : i32 to index
      %1283 = memref.load %1[%1282] : memref<4096xi32>
      memref.store %1283, %2[%1281] : memref<256xi32>
      %1284 = arith.addi %arg4, %c1_i32 : i32
      %1285 = arith.addi %arg3, %c1_i32 : i32
      scf.yield %1285, %1284, %1285 : i32, i32, i32
    }
    %41 = arith.index_cast %38#0 : i32 to index
    %42 = arith.index_cast %40#2 : i32 to index
    scf.for %arg2 = %41 to %c10 step %c1 {
      %1281 = arith.subi %arg2, %41 : index
      %1282 = arith.addi %42, %1281 : index
      %1283 = memref.load %1[%arg2] : memref<4096xi32>
      memref.store %1283, %2[%1282] : memref<256xi32>
    }
    scf.for %arg2 = %c0 to %c3 step %c1 {
      %1281 = arith.subi %c9, %arg2 : index
      %1282 = memref.load %2[%1281] : memref<256xi32>
      memref.store %1282, %1[%1281] : memref<4096xi32>
    }
    call @m_sort(%cast, %cast_0, %c10_i32, %c10_i32) : (memref<?xi32>, memref<?xi32>, i32, i32) -> ()
    call @m_sort(%cast, %cast_0, %c11_i32, %c11_i32) : (memref<?xi32>, memref<?xi32>, i32, i32) -> ()
    %43:3 = scf.while (%arg2 = %c10_i32, %arg3 = %c11_i32, %arg4 = %c10_i32) : (i32, i32, i32) -> (i32, i32, i32) {
      %1281 = arith.cmpi sle, %arg4, %c10_i32 : i32
      %1282 = arith.cmpi sle, %arg3, %c11_i32 : i32
      %1283 = arith.andi %1281, %1282 : i1
      scf.condition(%1283) %arg3, %arg2, %arg4 : i32, i32, i32
    } do {
    ^bb0(%arg2: i32, %arg3: i32, %arg4: i32):
      %1281 = arith.index_cast %arg4 : i32 to index
      %1282 = memref.load %1[%1281] : memref<4096xi32>
      %1283 = arith.index_cast %arg2 : i32 to index
      %1284 = memref.load %1[%1283] : memref<4096xi32>
      %1285 = arith.cmpi sle, %1282, %1284 : i32
      %1286:3 = scf.if %1285 -> (i32, i32, i32) {
        %1287 = arith.index_cast %arg3 : i32 to index
        memref.store %1282, %2[%1287] : memref<256xi32>
        %1288 = arith.addi %arg3, %c1_i32 : i32
        %1289 = arith.addi %arg4, %c1_i32 : i32
        scf.yield %1288, %arg2, %1289 : i32, i32, i32
      } else {
        %1287 = arith.index_cast %arg3 : i32 to index
        memref.store %1284, %2[%1287] : memref<256xi32>
        %1288 = arith.addi %arg3, %c1_i32 : i32
        %1289 = arith.addi %arg2, %c1_i32 : i32
        scf.yield %1288, %1289, %arg4 : i32, i32, i32
      }
      scf.yield %1286#0, %1286#1, %1286#2 : i32, i32, i32
    }
    %44 = arith.index_cast %43#2 : i32 to index
    %45:3 = scf.for %arg2 = %44 to %c11 step %c1 iter_args(%arg3 = %43#1, %arg4 = %43#2, %arg5 = %43#1) -> (i32, i32, i32) {
      %1281 = arith.index_cast %arg3 : i32 to index
      %1282 = arith.index_cast %arg4 : i32 to index
      %1283 = memref.load %1[%1282] : memref<4096xi32>
      memref.store %1283, %2[%1281] : memref<256xi32>
      %1284 = arith.addi %arg4, %c1_i32 : i32
      %1285 = arith.addi %arg3, %c1_i32 : i32
      scf.yield %1285, %1284, %1285 : i32, i32, i32
    }
    %46 = arith.index_cast %43#0 : i32 to index
    %47 = arith.index_cast %45#2 : i32 to index
    scf.for %arg2 = %46 to %c12 step %c1 {
      %1281 = arith.subi %arg2, %46 : index
      %1282 = arith.addi %47, %1281 : index
      %1283 = memref.load %1[%arg2] : memref<4096xi32>
      memref.store %1283, %2[%1282] : memref<256xi32>
    }
    scf.for %arg2 = %c0 to %c3 step %c1 {
      %1281 = arith.subi %c11, %arg2 : index
      %1282 = memref.load %2[%1281] : memref<256xi32>
      memref.store %1282, %1[%1281] : memref<4096xi32>
    }
    %48:3 = scf.while (%arg2 = %c8_i32, %arg3 = %c10_i32, %arg4 = %c8_i32) : (i32, i32, i32) -> (i32, i32, i32) {
      %1281 = arith.cmpi sle, %arg4, %c9_i32 : i32
      %1282 = arith.cmpi sle, %arg3, %c11_i32 : i32
      %1283 = arith.andi %1281, %1282 : i1
      scf.condition(%1283) %arg3, %arg2, %arg4 : i32, i32, i32
    } do {
    ^bb0(%arg2: i32, %arg3: i32, %arg4: i32):
      %1281 = arith.index_cast %arg4 : i32 to index
      %1282 = memref.load %1[%1281] : memref<4096xi32>
      %1283 = arith.index_cast %arg2 : i32 to index
      %1284 = memref.load %1[%1283] : memref<4096xi32>
      %1285 = arith.cmpi sle, %1282, %1284 : i32
      %1286:3 = scf.if %1285 -> (i32, i32, i32) {
        %1287 = arith.index_cast %arg3 : i32 to index
        memref.store %1282, %2[%1287] : memref<256xi32>
        %1288 = arith.addi %arg3, %c1_i32 : i32
        %1289 = arith.addi %arg4, %c1_i32 : i32
        scf.yield %1288, %arg2, %1289 : i32, i32, i32
      } else {
        %1287 = arith.index_cast %arg3 : i32 to index
        memref.store %1284, %2[%1287] : memref<256xi32>
        %1288 = arith.addi %arg3, %c1_i32 : i32
        %1289 = arith.addi %arg2, %c1_i32 : i32
        scf.yield %1288, %1289, %arg4 : i32, i32, i32
      }
      scf.yield %1286#0, %1286#1, %1286#2 : i32, i32, i32
    }
    %49 = arith.index_cast %48#2 : i32 to index
    %50:3 = scf.for %arg2 = %49 to %c10 step %c1 iter_args(%arg3 = %48#1, %arg4 = %48#2, %arg5 = %48#1) -> (i32, i32, i32) {
      %1281 = arith.index_cast %arg3 : i32 to index
      %1282 = arith.index_cast %arg4 : i32 to index
      %1283 = memref.load %1[%1282] : memref<4096xi32>
      memref.store %1283, %2[%1281] : memref<256xi32>
      %1284 = arith.addi %arg4, %c1_i32 : i32
      %1285 = arith.addi %arg3, %c1_i32 : i32
      scf.yield %1285, %1284, %1285 : i32, i32, i32
    }
    %51 = arith.index_cast %48#0 : i32 to index
    %52 = arith.index_cast %50#2 : i32 to index
    scf.for %arg2 = %51 to %c12 step %c1 {
      %1281 = arith.subi %arg2, %51 : index
      %1282 = arith.addi %52, %1281 : index
      %1283 = memref.load %1[%arg2] : memref<4096xi32>
      memref.store %1283, %2[%1282] : memref<256xi32>
    }
    scf.for %arg2 = %c0 to %c5 step %c1 {
      %1281 = arith.subi %c11, %arg2 : index
      %1282 = memref.load %2[%1281] : memref<256xi32>
      memref.store %1282, %1[%1281] : memref<4096xi32>
    }
    call @m_sort(%cast, %cast_0, %c12_i32, %c12_i32) : (memref<?xi32>, memref<?xi32>, i32, i32) -> ()
    call @m_sort(%cast, %cast_0, %c13_i32, %c13_i32) : (memref<?xi32>, memref<?xi32>, i32, i32) -> ()
    %53:3 = scf.while (%arg2 = %c12_i32, %arg3 = %c13_i32, %arg4 = %c12_i32) : (i32, i32, i32) -> (i32, i32, i32) {
      %1281 = arith.cmpi sle, %arg4, %c12_i32 : i32
      %1282 = arith.cmpi sle, %arg3, %c13_i32 : i32
      %1283 = arith.andi %1281, %1282 : i1
      scf.condition(%1283) %arg3, %arg2, %arg4 : i32, i32, i32
    } do {
    ^bb0(%arg2: i32, %arg3: i32, %arg4: i32):
      %1281 = arith.index_cast %arg4 : i32 to index
      %1282 = memref.load %1[%1281] : memref<4096xi32>
      %1283 = arith.index_cast %arg2 : i32 to index
      %1284 = memref.load %1[%1283] : memref<4096xi32>
      %1285 = arith.cmpi sle, %1282, %1284 : i32
      %1286:3 = scf.if %1285 -> (i32, i32, i32) {
        %1287 = arith.index_cast %arg3 : i32 to index
        memref.store %1282, %2[%1287] : memref<256xi32>
        %1288 = arith.addi %arg3, %c1_i32 : i32
        %1289 = arith.addi %arg4, %c1_i32 : i32
        scf.yield %1288, %arg2, %1289 : i32, i32, i32
      } else {
        %1287 = arith.index_cast %arg3 : i32 to index
        memref.store %1284, %2[%1287] : memref<256xi32>
        %1288 = arith.addi %arg3, %c1_i32 : i32
        %1289 = arith.addi %arg2, %c1_i32 : i32
        scf.yield %1288, %1289, %arg4 : i32, i32, i32
      }
      scf.yield %1286#0, %1286#1, %1286#2 : i32, i32, i32
    }
    %54 = arith.index_cast %53#2 : i32 to index
    %55:3 = scf.for %arg2 = %54 to %c13 step %c1 iter_args(%arg3 = %53#1, %arg4 = %53#2, %arg5 = %53#1) -> (i32, i32, i32) {
      %1281 = arith.index_cast %arg3 : i32 to index
      %1282 = arith.index_cast %arg4 : i32 to index
      %1283 = memref.load %1[%1282] : memref<4096xi32>
      memref.store %1283, %2[%1281] : memref<256xi32>
      %1284 = arith.addi %arg4, %c1_i32 : i32
      %1285 = arith.addi %arg3, %c1_i32 : i32
      scf.yield %1285, %1284, %1285 : i32, i32, i32
    }
    %56 = arith.index_cast %53#0 : i32 to index
    %57 = arith.index_cast %55#2 : i32 to index
    scf.for %arg2 = %56 to %c14 step %c1 {
      %1281 = arith.subi %arg2, %56 : index
      %1282 = arith.addi %57, %1281 : index
      %1283 = memref.load %1[%arg2] : memref<4096xi32>
      memref.store %1283, %2[%1282] : memref<256xi32>
    }
    scf.for %arg2 = %c0 to %c3 step %c1 {
      %1281 = arith.subi %c13, %arg2 : index
      %1282 = memref.load %2[%1281] : memref<256xi32>
      memref.store %1282, %1[%1281] : memref<4096xi32>
    }
    call @m_sort(%cast, %cast_0, %c14_i32, %c14_i32) : (memref<?xi32>, memref<?xi32>, i32, i32) -> ()
    call @m_sort(%cast, %cast_0, %c15_i32, %c15_i32) : (memref<?xi32>, memref<?xi32>, i32, i32) -> ()
    %58:3 = scf.while (%arg2 = %c14_i32, %arg3 = %c15_i32, %arg4 = %c14_i32) : (i32, i32, i32) -> (i32, i32, i32) {
      %1281 = arith.cmpi sle, %arg4, %c14_i32 : i32
      %1282 = arith.cmpi sle, %arg3, %c15_i32 : i32
      %1283 = arith.andi %1281, %1282 : i1
      scf.condition(%1283) %arg3, %arg2, %arg4 : i32, i32, i32
    } do {
    ^bb0(%arg2: i32, %arg3: i32, %arg4: i32):
      %1281 = arith.index_cast %arg4 : i32 to index
      %1282 = memref.load %1[%1281] : memref<4096xi32>
      %1283 = arith.index_cast %arg2 : i32 to index
      %1284 = memref.load %1[%1283] : memref<4096xi32>
      %1285 = arith.cmpi sle, %1282, %1284 : i32
      %1286:3 = scf.if %1285 -> (i32, i32, i32) {
        %1287 = arith.index_cast %arg3 : i32 to index
        memref.store %1282, %2[%1287] : memref<256xi32>
        %1288 = arith.addi %arg3, %c1_i32 : i32
        %1289 = arith.addi %arg4, %c1_i32 : i32
        scf.yield %1288, %arg2, %1289 : i32, i32, i32
      } else {
        %1287 = arith.index_cast %arg3 : i32 to index
        memref.store %1284, %2[%1287] : memref<256xi32>
        %1288 = arith.addi %arg3, %c1_i32 : i32
        %1289 = arith.addi %arg2, %c1_i32 : i32
        scf.yield %1288, %1289, %arg4 : i32, i32, i32
      }
      scf.yield %1286#0, %1286#1, %1286#2 : i32, i32, i32
    }
    %59 = arith.index_cast %58#2 : i32 to index
    %60:3 = scf.for %arg2 = %59 to %c15 step %c1 iter_args(%arg3 = %58#1, %arg4 = %58#2, %arg5 = %58#1) -> (i32, i32, i32) {
      %1281 = arith.index_cast %arg3 : i32 to index
      %1282 = arith.index_cast %arg4 : i32 to index
      %1283 = memref.load %1[%1282] : memref<4096xi32>
      memref.store %1283, %2[%1281] : memref<256xi32>
      %1284 = arith.addi %arg4, %c1_i32 : i32
      %1285 = arith.addi %arg3, %c1_i32 : i32
      scf.yield %1285, %1284, %1285 : i32, i32, i32
    }
    %61 = arith.index_cast %58#0 : i32 to index
    %62 = arith.index_cast %60#2 : i32 to index
    scf.for %arg2 = %61 to %c16 step %c1 {
      %1281 = arith.subi %arg2, %61 : index
      %1282 = arith.addi %62, %1281 : index
      %1283 = memref.load %1[%arg2] : memref<4096xi32>
      memref.store %1283, %2[%1282] : memref<256xi32>
    }
    scf.for %arg2 = %c0 to %c3 step %c1 {
      %1281 = arith.subi %c15, %arg2 : index
      %1282 = memref.load %2[%1281] : memref<256xi32>
      memref.store %1282, %1[%1281] : memref<4096xi32>
    }
    %63:3 = scf.while (%arg2 = %c12_i32, %arg3 = %c14_i32, %arg4 = %c12_i32) : (i32, i32, i32) -> (i32, i32, i32) {
      %1281 = arith.cmpi sle, %arg4, %c13_i32 : i32
      %1282 = arith.cmpi sle, %arg3, %c15_i32 : i32
      %1283 = arith.andi %1281, %1282 : i1
      scf.condition(%1283) %arg3, %arg2, %arg4 : i32, i32, i32
    } do {
    ^bb0(%arg2: i32, %arg3: i32, %arg4: i32):
      %1281 = arith.index_cast %arg4 : i32 to index
      %1282 = memref.load %1[%1281] : memref<4096xi32>
      %1283 = arith.index_cast %arg2 : i32 to index
      %1284 = memref.load %1[%1283] : memref<4096xi32>
      %1285 = arith.cmpi sle, %1282, %1284 : i32
      %1286:3 = scf.if %1285 -> (i32, i32, i32) {
        %1287 = arith.index_cast %arg3 : i32 to index
        memref.store %1282, %2[%1287] : memref<256xi32>
        %1288 = arith.addi %arg3, %c1_i32 : i32
        %1289 = arith.addi %arg4, %c1_i32 : i32
        scf.yield %1288, %arg2, %1289 : i32, i32, i32
      } else {
        %1287 = arith.index_cast %arg3 : i32 to index
        memref.store %1284, %2[%1287] : memref<256xi32>
        %1288 = arith.addi %arg3, %c1_i32 : i32
        %1289 = arith.addi %arg2, %c1_i32 : i32
        scf.yield %1288, %1289, %arg4 : i32, i32, i32
      }
      scf.yield %1286#0, %1286#1, %1286#2 : i32, i32, i32
    }
    %64 = arith.index_cast %63#2 : i32 to index
    %65:3 = scf.for %arg2 = %64 to %c14 step %c1 iter_args(%arg3 = %63#1, %arg4 = %63#2, %arg5 = %63#1) -> (i32, i32, i32) {
      %1281 = arith.index_cast %arg3 : i32 to index
      %1282 = arith.index_cast %arg4 : i32 to index
      %1283 = memref.load %1[%1282] : memref<4096xi32>
      memref.store %1283, %2[%1281] : memref<256xi32>
      %1284 = arith.addi %arg4, %c1_i32 : i32
      %1285 = arith.addi %arg3, %c1_i32 : i32
      scf.yield %1285, %1284, %1285 : i32, i32, i32
    }
    %66 = arith.index_cast %63#0 : i32 to index
    %67 = arith.index_cast %65#2 : i32 to index
    scf.for %arg2 = %66 to %c16 step %c1 {
      %1281 = arith.subi %arg2, %66 : index
      %1282 = arith.addi %67, %1281 : index
      %1283 = memref.load %1[%arg2] : memref<4096xi32>
      memref.store %1283, %2[%1282] : memref<256xi32>
    }
    scf.for %arg2 = %c0 to %c5 step %c1 {
      %1281 = arith.subi %c15, %arg2 : index
      %1282 = memref.load %2[%1281] : memref<256xi32>
      memref.store %1282, %1[%1281] : memref<4096xi32>
    }
    %68:3 = scf.while (%arg2 = %c8_i32, %arg3 = %c12_i32, %arg4 = %c8_i32) : (i32, i32, i32) -> (i32, i32, i32) {
      %1281 = arith.cmpi sle, %arg4, %c11_i32 : i32
      %1282 = arith.cmpi sle, %arg3, %c15_i32 : i32
      %1283 = arith.andi %1281, %1282 : i1
      scf.condition(%1283) %arg3, %arg2, %arg4 : i32, i32, i32
    } do {
    ^bb0(%arg2: i32, %arg3: i32, %arg4: i32):
      %1281 = arith.index_cast %arg4 : i32 to index
      %1282 = memref.load %1[%1281] : memref<4096xi32>
      %1283 = arith.index_cast %arg2 : i32 to index
      %1284 = memref.load %1[%1283] : memref<4096xi32>
      %1285 = arith.cmpi sle, %1282, %1284 : i32
      %1286:3 = scf.if %1285 -> (i32, i32, i32) {
        %1287 = arith.index_cast %arg3 : i32 to index
        memref.store %1282, %2[%1287] : memref<256xi32>
        %1288 = arith.addi %arg3, %c1_i32 : i32
        %1289 = arith.addi %arg4, %c1_i32 : i32
        scf.yield %1288, %arg2, %1289 : i32, i32, i32
      } else {
        %1287 = arith.index_cast %arg3 : i32 to index
        memref.store %1284, %2[%1287] : memref<256xi32>
        %1288 = arith.addi %arg3, %c1_i32 : i32
        %1289 = arith.addi %arg2, %c1_i32 : i32
        scf.yield %1288, %1289, %arg4 : i32, i32, i32
      }
      scf.yield %1286#0, %1286#1, %1286#2 : i32, i32, i32
    }
    %69 = arith.index_cast %68#2 : i32 to index
    %70:3 = scf.for %arg2 = %69 to %c12 step %c1 iter_args(%arg3 = %68#1, %arg4 = %68#2, %arg5 = %68#1) -> (i32, i32, i32) {
      %1281 = arith.index_cast %arg3 : i32 to index
      %1282 = arith.index_cast %arg4 : i32 to index
      %1283 = memref.load %1[%1282] : memref<4096xi32>
      memref.store %1283, %2[%1281] : memref<256xi32>
      %1284 = arith.addi %arg4, %c1_i32 : i32
      %1285 = arith.addi %arg3, %c1_i32 : i32
      scf.yield %1285, %1284, %1285 : i32, i32, i32
    }
    %71 = arith.index_cast %68#0 : i32 to index
    %72 = arith.index_cast %70#2 : i32 to index
    scf.for %arg2 = %71 to %c16 step %c1 {
      %1281 = arith.subi %arg2, %71 : index
      %1282 = arith.addi %72, %1281 : index
      %1283 = memref.load %1[%arg2] : memref<4096xi32>
      memref.store %1283, %2[%1282] : memref<256xi32>
    }
    scf.for %arg2 = %c0 to %c9 step %c1 {
      %1281 = arith.subi %c15, %arg2 : index
      %1282 = memref.load %2[%1281] : memref<256xi32>
      memref.store %1282, %1[%1281] : memref<4096xi32>
    }
    %73:3 = scf.while (%arg2 = %c0_i32, %arg3 = %c8_i32, %arg4 = %c0_i32) : (i32, i32, i32) -> (i32, i32, i32) {
      %1281 = arith.cmpi sle, %arg4, %c7_i32 : i32
      %1282 = arith.cmpi sle, %arg3, %c15_i32 : i32
      %1283 = arith.andi %1281, %1282 : i1
      scf.condition(%1283) %arg3, %arg2, %arg4 : i32, i32, i32
    } do {
    ^bb0(%arg2: i32, %arg3: i32, %arg4: i32):
      %1281 = arith.index_cast %arg4 : i32 to index
      %1282 = memref.load %1[%1281] : memref<4096xi32>
      %1283 = arith.index_cast %arg2 : i32 to index
      %1284 = memref.load %1[%1283] : memref<4096xi32>
      %1285 = arith.cmpi sle, %1282, %1284 : i32
      %1286:3 = scf.if %1285 -> (i32, i32, i32) {
        %1287 = arith.index_cast %arg3 : i32 to index
        memref.store %1282, %2[%1287] : memref<256xi32>
        %1288 = arith.addi %arg3, %c1_i32 : i32
        %1289 = arith.addi %arg4, %c1_i32 : i32
        scf.yield %1288, %arg2, %1289 : i32, i32, i32
      } else {
        %1287 = arith.index_cast %arg3 : i32 to index
        memref.store %1284, %2[%1287] : memref<256xi32>
        %1288 = arith.addi %arg3, %c1_i32 : i32
        %1289 = arith.addi %arg2, %c1_i32 : i32
        scf.yield %1288, %1289, %arg4 : i32, i32, i32
      }
      scf.yield %1286#0, %1286#1, %1286#2 : i32, i32, i32
    }
    %74 = arith.index_cast %73#2 : i32 to index
    %75:3 = scf.for %arg2 = %74 to %c8 step %c1 iter_args(%arg3 = %73#1, %arg4 = %73#2, %arg5 = %73#1) -> (i32, i32, i32) {
      %1281 = arith.index_cast %arg3 : i32 to index
      %1282 = arith.index_cast %arg4 : i32 to index
      %1283 = memref.load %1[%1282] : memref<4096xi32>
      memref.store %1283, %2[%1281] : memref<256xi32>
      %1284 = arith.addi %arg4, %c1_i32 : i32
      %1285 = arith.addi %arg3, %c1_i32 : i32
      scf.yield %1285, %1284, %1285 : i32, i32, i32
    }
    %76 = arith.index_cast %73#0 : i32 to index
    %77 = arith.index_cast %75#2 : i32 to index
    scf.for %arg2 = %76 to %c16 step %c1 {
      %1281 = arith.subi %arg2, %76 : index
      %1282 = arith.addi %77, %1281 : index
      %1283 = memref.load %1[%arg2] : memref<4096xi32>
      memref.store %1283, %2[%1282] : memref<256xi32>
    }
    scf.for %arg2 = %c0 to %c17 step %c1 {
      %1281 = arith.subi %c15, %arg2 : index
      %1282 = memref.load %2[%1281] : memref<256xi32>
      memref.store %1282, %1[%1281] : memref<4096xi32>
    }
    call @m_sort(%cast, %cast_0, %c16_i32, %c16_i32) : (memref<?xi32>, memref<?xi32>, i32, i32) -> ()
    call @m_sort(%cast, %cast_0, %c17_i32, %c17_i32) : (memref<?xi32>, memref<?xi32>, i32, i32) -> ()
    %78:3 = scf.while (%arg2 = %c16_i32, %arg3 = %c17_i32, %arg4 = %c16_i32) : (i32, i32, i32) -> (i32, i32, i32) {
      %1281 = arith.cmpi sle, %arg4, %c16_i32 : i32
      %1282 = arith.cmpi sle, %arg3, %c17_i32 : i32
      %1283 = arith.andi %1281, %1282 : i1
      scf.condition(%1283) %arg3, %arg2, %arg4 : i32, i32, i32
    } do {
    ^bb0(%arg2: i32, %arg3: i32, %arg4: i32):
      %1281 = arith.index_cast %arg4 : i32 to index
      %1282 = memref.load %1[%1281] : memref<4096xi32>
      %1283 = arith.index_cast %arg2 : i32 to index
      %1284 = memref.load %1[%1283] : memref<4096xi32>
      %1285 = arith.cmpi sle, %1282, %1284 : i32
      %1286:3 = scf.if %1285 -> (i32, i32, i32) {
        %1287 = arith.index_cast %arg3 : i32 to index
        memref.store %1282, %2[%1287] : memref<256xi32>
        %1288 = arith.addi %arg3, %c1_i32 : i32
        %1289 = arith.addi %arg4, %c1_i32 : i32
        scf.yield %1288, %arg2, %1289 : i32, i32, i32
      } else {
        %1287 = arith.index_cast %arg3 : i32 to index
        memref.store %1284, %2[%1287] : memref<256xi32>
        %1288 = arith.addi %arg3, %c1_i32 : i32
        %1289 = arith.addi %arg2, %c1_i32 : i32
        scf.yield %1288, %1289, %arg4 : i32, i32, i32
      }
      scf.yield %1286#0, %1286#1, %1286#2 : i32, i32, i32
    }
    %79 = arith.index_cast %78#2 : i32 to index
    %80:3 = scf.for %arg2 = %79 to %c17 step %c1 iter_args(%arg3 = %78#1, %arg4 = %78#2, %arg5 = %78#1) -> (i32, i32, i32) {
      %1281 = arith.index_cast %arg3 : i32 to index
      %1282 = arith.index_cast %arg4 : i32 to index
      %1283 = memref.load %1[%1282] : memref<4096xi32>
      memref.store %1283, %2[%1281] : memref<256xi32>
      %1284 = arith.addi %arg4, %c1_i32 : i32
      %1285 = arith.addi %arg3, %c1_i32 : i32
      scf.yield %1285, %1284, %1285 : i32, i32, i32
    }
    %81 = arith.index_cast %78#0 : i32 to index
    %82 = arith.index_cast %80#2 : i32 to index
    scf.for %arg2 = %81 to %c18 step %c1 {
      %1281 = arith.subi %arg2, %81 : index
      %1282 = arith.addi %82, %1281 : index
      %1283 = memref.load %1[%arg2] : memref<4096xi32>
      memref.store %1283, %2[%1282] : memref<256xi32>
    }
    scf.for %arg2 = %c0 to %c3 step %c1 {
      %1281 = arith.subi %c17, %arg2 : index
      %1282 = memref.load %2[%1281] : memref<256xi32>
      memref.store %1282, %1[%1281] : memref<4096xi32>
    }
    call @m_sort(%cast, %cast_0, %c18_i32, %c18_i32) : (memref<?xi32>, memref<?xi32>, i32, i32) -> ()
    call @m_sort(%cast, %cast_0, %c19_i32, %c19_i32) : (memref<?xi32>, memref<?xi32>, i32, i32) -> ()
    %83:3 = scf.while (%arg2 = %c18_i32, %arg3 = %c19_i32, %arg4 = %c18_i32) : (i32, i32, i32) -> (i32, i32, i32) {
      %1281 = arith.cmpi sle, %arg4, %c18_i32 : i32
      %1282 = arith.cmpi sle, %arg3, %c19_i32 : i32
      %1283 = arith.andi %1281, %1282 : i1
      scf.condition(%1283) %arg3, %arg2, %arg4 : i32, i32, i32
    } do {
    ^bb0(%arg2: i32, %arg3: i32, %arg4: i32):
      %1281 = arith.index_cast %arg4 : i32 to index
      %1282 = memref.load %1[%1281] : memref<4096xi32>
      %1283 = arith.index_cast %arg2 : i32 to index
      %1284 = memref.load %1[%1283] : memref<4096xi32>
      %1285 = arith.cmpi sle, %1282, %1284 : i32
      %1286:3 = scf.if %1285 -> (i32, i32, i32) {
        %1287 = arith.index_cast %arg3 : i32 to index
        memref.store %1282, %2[%1287] : memref<256xi32>
        %1288 = arith.addi %arg3, %c1_i32 : i32
        %1289 = arith.addi %arg4, %c1_i32 : i32
        scf.yield %1288, %arg2, %1289 : i32, i32, i32
      } else {
        %1287 = arith.index_cast %arg3 : i32 to index
        memref.store %1284, %2[%1287] : memref<256xi32>
        %1288 = arith.addi %arg3, %c1_i32 : i32
        %1289 = arith.addi %arg2, %c1_i32 : i32
        scf.yield %1288, %1289, %arg4 : i32, i32, i32
      }
      scf.yield %1286#0, %1286#1, %1286#2 : i32, i32, i32
    }
    %84 = arith.index_cast %83#2 : i32 to index
    %85:3 = scf.for %arg2 = %84 to %c19 step %c1 iter_args(%arg3 = %83#1, %arg4 = %83#2, %arg5 = %83#1) -> (i32, i32, i32) {
      %1281 = arith.index_cast %arg3 : i32 to index
      %1282 = arith.index_cast %arg4 : i32 to index
      %1283 = memref.load %1[%1282] : memref<4096xi32>
      memref.store %1283, %2[%1281] : memref<256xi32>
      %1284 = arith.addi %arg4, %c1_i32 : i32
      %1285 = arith.addi %arg3, %c1_i32 : i32
      scf.yield %1285, %1284, %1285 : i32, i32, i32
    }
    %86 = arith.index_cast %83#0 : i32 to index
    %87 = arith.index_cast %85#2 : i32 to index
    scf.for %arg2 = %86 to %c20 step %c1 {
      %1281 = arith.subi %arg2, %86 : index
      %1282 = arith.addi %87, %1281 : index
      %1283 = memref.load %1[%arg2] : memref<4096xi32>
      memref.store %1283, %2[%1282] : memref<256xi32>
    }
    scf.for %arg2 = %c0 to %c3 step %c1 {
      %1281 = arith.subi %c19, %arg2 : index
      %1282 = memref.load %2[%1281] : memref<256xi32>
      memref.store %1282, %1[%1281] : memref<4096xi32>
    }
    %88:3 = scf.while (%arg2 = %c16_i32, %arg3 = %c18_i32, %arg4 = %c16_i32) : (i32, i32, i32) -> (i32, i32, i32) {
      %1281 = arith.cmpi sle, %arg4, %c17_i32 : i32
      %1282 = arith.cmpi sle, %arg3, %c19_i32 : i32
      %1283 = arith.andi %1281, %1282 : i1
      scf.condition(%1283) %arg3, %arg2, %arg4 : i32, i32, i32
    } do {
    ^bb0(%arg2: i32, %arg3: i32, %arg4: i32):
      %1281 = arith.index_cast %arg4 : i32 to index
      %1282 = memref.load %1[%1281] : memref<4096xi32>
      %1283 = arith.index_cast %arg2 : i32 to index
      %1284 = memref.load %1[%1283] : memref<4096xi32>
      %1285 = arith.cmpi sle, %1282, %1284 : i32
      %1286:3 = scf.if %1285 -> (i32, i32, i32) {
        %1287 = arith.index_cast %arg3 : i32 to index
        memref.store %1282, %2[%1287] : memref<256xi32>
        %1288 = arith.addi %arg3, %c1_i32 : i32
        %1289 = arith.addi %arg4, %c1_i32 : i32
        scf.yield %1288, %arg2, %1289 : i32, i32, i32
      } else {
        %1287 = arith.index_cast %arg3 : i32 to index
        memref.store %1284, %2[%1287] : memref<256xi32>
        %1288 = arith.addi %arg3, %c1_i32 : i32
        %1289 = arith.addi %arg2, %c1_i32 : i32
        scf.yield %1288, %1289, %arg4 : i32, i32, i32
      }
      scf.yield %1286#0, %1286#1, %1286#2 : i32, i32, i32
    }
    %89 = arith.index_cast %88#2 : i32 to index
    %90:3 = scf.for %arg2 = %89 to %c18 step %c1 iter_args(%arg3 = %88#1, %arg4 = %88#2, %arg5 = %88#1) -> (i32, i32, i32) {
      %1281 = arith.index_cast %arg3 : i32 to index
      %1282 = arith.index_cast %arg4 : i32 to index
      %1283 = memref.load %1[%1282] : memref<4096xi32>
      memref.store %1283, %2[%1281] : memref<256xi32>
      %1284 = arith.addi %arg4, %c1_i32 : i32
      %1285 = arith.addi %arg3, %c1_i32 : i32
      scf.yield %1285, %1284, %1285 : i32, i32, i32
    }
    %91 = arith.index_cast %88#0 : i32 to index
    %92 = arith.index_cast %90#2 : i32 to index
    scf.for %arg2 = %91 to %c20 step %c1 {
      %1281 = arith.subi %arg2, %91 : index
      %1282 = arith.addi %92, %1281 : index
      %1283 = memref.load %1[%arg2] : memref<4096xi32>
      memref.store %1283, %2[%1282] : memref<256xi32>
    }
    scf.for %arg2 = %c0 to %c5 step %c1 {
      %1281 = arith.subi %c19, %arg2 : index
      %1282 = memref.load %2[%1281] : memref<256xi32>
      memref.store %1282, %1[%1281] : memref<4096xi32>
    }
    call @m_sort(%cast, %cast_0, %c20_i32, %c20_i32) : (memref<?xi32>, memref<?xi32>, i32, i32) -> ()
    call @m_sort(%cast, %cast_0, %c21_i32, %c21_i32) : (memref<?xi32>, memref<?xi32>, i32, i32) -> ()
    %93:3 = scf.while (%arg2 = %c20_i32, %arg3 = %c21_i32, %arg4 = %c20_i32) : (i32, i32, i32) -> (i32, i32, i32) {
      %1281 = arith.cmpi sle, %arg4, %c20_i32 : i32
      %1282 = arith.cmpi sle, %arg3, %c21_i32 : i32
      %1283 = arith.andi %1281, %1282 : i1
      scf.condition(%1283) %arg3, %arg2, %arg4 : i32, i32, i32
    } do {
    ^bb0(%arg2: i32, %arg3: i32, %arg4: i32):
      %1281 = arith.index_cast %arg4 : i32 to index
      %1282 = memref.load %1[%1281] : memref<4096xi32>
      %1283 = arith.index_cast %arg2 : i32 to index
      %1284 = memref.load %1[%1283] : memref<4096xi32>
      %1285 = arith.cmpi sle, %1282, %1284 : i32
      %1286:3 = scf.if %1285 -> (i32, i32, i32) {
        %1287 = arith.index_cast %arg3 : i32 to index
        memref.store %1282, %2[%1287] : memref<256xi32>
        %1288 = arith.addi %arg3, %c1_i32 : i32
        %1289 = arith.addi %arg4, %c1_i32 : i32
        scf.yield %1288, %arg2, %1289 : i32, i32, i32
      } else {
        %1287 = arith.index_cast %arg3 : i32 to index
        memref.store %1284, %2[%1287] : memref<256xi32>
        %1288 = arith.addi %arg3, %c1_i32 : i32
        %1289 = arith.addi %arg2, %c1_i32 : i32
        scf.yield %1288, %1289, %arg4 : i32, i32, i32
      }
      scf.yield %1286#0, %1286#1, %1286#2 : i32, i32, i32
    }
    %94 = arith.index_cast %93#2 : i32 to index
    %95:3 = scf.for %arg2 = %94 to %c21 step %c1 iter_args(%arg3 = %93#1, %arg4 = %93#2, %arg5 = %93#1) -> (i32, i32, i32) {
      %1281 = arith.index_cast %arg3 : i32 to index
      %1282 = arith.index_cast %arg4 : i32 to index
      %1283 = memref.load %1[%1282] : memref<4096xi32>
      memref.store %1283, %2[%1281] : memref<256xi32>
      %1284 = arith.addi %arg4, %c1_i32 : i32
      %1285 = arith.addi %arg3, %c1_i32 : i32
      scf.yield %1285, %1284, %1285 : i32, i32, i32
    }
    %96 = arith.index_cast %93#0 : i32 to index
    %97 = arith.index_cast %95#2 : i32 to index
    scf.for %arg2 = %96 to %c22 step %c1 {
      %1281 = arith.subi %arg2, %96 : index
      %1282 = arith.addi %97, %1281 : index
      %1283 = memref.load %1[%arg2] : memref<4096xi32>
      memref.store %1283, %2[%1282] : memref<256xi32>
    }
    scf.for %arg2 = %c0 to %c3 step %c1 {
      %1281 = arith.subi %c21, %arg2 : index
      %1282 = memref.load %2[%1281] : memref<256xi32>
      memref.store %1282, %1[%1281] : memref<4096xi32>
    }
    call @m_sort(%cast, %cast_0, %c22_i32, %c22_i32) : (memref<?xi32>, memref<?xi32>, i32, i32) -> ()
    call @m_sort(%cast, %cast_0, %c23_i32, %c23_i32) : (memref<?xi32>, memref<?xi32>, i32, i32) -> ()
    %98:3 = scf.while (%arg2 = %c22_i32, %arg3 = %c23_i32, %arg4 = %c22_i32) : (i32, i32, i32) -> (i32, i32, i32) {
      %1281 = arith.cmpi sle, %arg4, %c22_i32 : i32
      %1282 = arith.cmpi sle, %arg3, %c23_i32 : i32
      %1283 = arith.andi %1281, %1282 : i1
      scf.condition(%1283) %arg3, %arg2, %arg4 : i32, i32, i32
    } do {
    ^bb0(%arg2: i32, %arg3: i32, %arg4: i32):
      %1281 = arith.index_cast %arg4 : i32 to index
      %1282 = memref.load %1[%1281] : memref<4096xi32>
      %1283 = arith.index_cast %arg2 : i32 to index
      %1284 = memref.load %1[%1283] : memref<4096xi32>
      %1285 = arith.cmpi sle, %1282, %1284 : i32
      %1286:3 = scf.if %1285 -> (i32, i32, i32) {
        %1287 = arith.index_cast %arg3 : i32 to index
        memref.store %1282, %2[%1287] : memref<256xi32>
        %1288 = arith.addi %arg3, %c1_i32 : i32
        %1289 = arith.addi %arg4, %c1_i32 : i32
        scf.yield %1288, %arg2, %1289 : i32, i32, i32
      } else {
        %1287 = arith.index_cast %arg3 : i32 to index
        memref.store %1284, %2[%1287] : memref<256xi32>
        %1288 = arith.addi %arg3, %c1_i32 : i32
        %1289 = arith.addi %arg2, %c1_i32 : i32
        scf.yield %1288, %1289, %arg4 : i32, i32, i32
      }
      scf.yield %1286#0, %1286#1, %1286#2 : i32, i32, i32
    }
    %99 = arith.index_cast %98#2 : i32 to index
    %100:3 = scf.for %arg2 = %99 to %c23 step %c1 iter_args(%arg3 = %98#1, %arg4 = %98#2, %arg5 = %98#1) -> (i32, i32, i32) {
      %1281 = arith.index_cast %arg3 : i32 to index
      %1282 = arith.index_cast %arg4 : i32 to index
      %1283 = memref.load %1[%1282] : memref<4096xi32>
      memref.store %1283, %2[%1281] : memref<256xi32>
      %1284 = arith.addi %arg4, %c1_i32 : i32
      %1285 = arith.addi %arg3, %c1_i32 : i32
      scf.yield %1285, %1284, %1285 : i32, i32, i32
    }
    %101 = arith.index_cast %98#0 : i32 to index
    %102 = arith.index_cast %100#2 : i32 to index
    scf.for %arg2 = %101 to %c24 step %c1 {
      %1281 = arith.subi %arg2, %101 : index
      %1282 = arith.addi %102, %1281 : index
      %1283 = memref.load %1[%arg2] : memref<4096xi32>
      memref.store %1283, %2[%1282] : memref<256xi32>
    }
    scf.for %arg2 = %c0 to %c3 step %c1 {
      %1281 = arith.subi %c23, %arg2 : index
      %1282 = memref.load %2[%1281] : memref<256xi32>
      memref.store %1282, %1[%1281] : memref<4096xi32>
    }
    %103:3 = scf.while (%arg2 = %c20_i32, %arg3 = %c22_i32, %arg4 = %c20_i32) : (i32, i32, i32) -> (i32, i32, i32) {
      %1281 = arith.cmpi sle, %arg4, %c21_i32 : i32
      %1282 = arith.cmpi sle, %arg3, %c23_i32 : i32
      %1283 = arith.andi %1281, %1282 : i1
      scf.condition(%1283) %arg3, %arg2, %arg4 : i32, i32, i32
    } do {
    ^bb0(%arg2: i32, %arg3: i32, %arg4: i32):
      %1281 = arith.index_cast %arg4 : i32 to index
      %1282 = memref.load %1[%1281] : memref<4096xi32>
      %1283 = arith.index_cast %arg2 : i32 to index
      %1284 = memref.load %1[%1283] : memref<4096xi32>
      %1285 = arith.cmpi sle, %1282, %1284 : i32
      %1286:3 = scf.if %1285 -> (i32, i32, i32) {
        %1287 = arith.index_cast %arg3 : i32 to index
        memref.store %1282, %2[%1287] : memref<256xi32>
        %1288 = arith.addi %arg3, %c1_i32 : i32
        %1289 = arith.addi %arg4, %c1_i32 : i32
        scf.yield %1288, %arg2, %1289 : i32, i32, i32
      } else {
        %1287 = arith.index_cast %arg3 : i32 to index
        memref.store %1284, %2[%1287] : memref<256xi32>
        %1288 = arith.addi %arg3, %c1_i32 : i32
        %1289 = arith.addi %arg2, %c1_i32 : i32
        scf.yield %1288, %1289, %arg4 : i32, i32, i32
      }
      scf.yield %1286#0, %1286#1, %1286#2 : i32, i32, i32
    }
    %104 = arith.index_cast %103#2 : i32 to index
    %105:3 = scf.for %arg2 = %104 to %c22 step %c1 iter_args(%arg3 = %103#1, %arg4 = %103#2, %arg5 = %103#1) -> (i32, i32, i32) {
      %1281 = arith.index_cast %arg3 : i32 to index
      %1282 = arith.index_cast %arg4 : i32 to index
      %1283 = memref.load %1[%1282] : memref<4096xi32>
      memref.store %1283, %2[%1281] : memref<256xi32>
      %1284 = arith.addi %arg4, %c1_i32 : i32
      %1285 = arith.addi %arg3, %c1_i32 : i32
      scf.yield %1285, %1284, %1285 : i32, i32, i32
    }
    %106 = arith.index_cast %103#0 : i32 to index
    %107 = arith.index_cast %105#2 : i32 to index
    scf.for %arg2 = %106 to %c24 step %c1 {
      %1281 = arith.subi %arg2, %106 : index
      %1282 = arith.addi %107, %1281 : index
      %1283 = memref.load %1[%arg2] : memref<4096xi32>
      memref.store %1283, %2[%1282] : memref<256xi32>
    }
    scf.for %arg2 = %c0 to %c5 step %c1 {
      %1281 = arith.subi %c23, %arg2 : index
      %1282 = memref.load %2[%1281] : memref<256xi32>
      memref.store %1282, %1[%1281] : memref<4096xi32>
    }
    %108:3 = scf.while (%arg2 = %c16_i32, %arg3 = %c20_i32, %arg4 = %c16_i32) : (i32, i32, i32) -> (i32, i32, i32) {
      %1281 = arith.cmpi sle, %arg4, %c19_i32 : i32
      %1282 = arith.cmpi sle, %arg3, %c23_i32 : i32
      %1283 = arith.andi %1281, %1282 : i1
      scf.condition(%1283) %arg3, %arg2, %arg4 : i32, i32, i32
    } do {
    ^bb0(%arg2: i32, %arg3: i32, %arg4: i32):
      %1281 = arith.index_cast %arg4 : i32 to index
      %1282 = memref.load %1[%1281] : memref<4096xi32>
      %1283 = arith.index_cast %arg2 : i32 to index
      %1284 = memref.load %1[%1283] : memref<4096xi32>
      %1285 = arith.cmpi sle, %1282, %1284 : i32
      %1286:3 = scf.if %1285 -> (i32, i32, i32) {
        %1287 = arith.index_cast %arg3 : i32 to index
        memref.store %1282, %2[%1287] : memref<256xi32>
        %1288 = arith.addi %arg3, %c1_i32 : i32
        %1289 = arith.addi %arg4, %c1_i32 : i32
        scf.yield %1288, %arg2, %1289 : i32, i32, i32
      } else {
        %1287 = arith.index_cast %arg3 : i32 to index
        memref.store %1284, %2[%1287] : memref<256xi32>
        %1288 = arith.addi %arg3, %c1_i32 : i32
        %1289 = arith.addi %arg2, %c1_i32 : i32
        scf.yield %1288, %1289, %arg4 : i32, i32, i32
      }
      scf.yield %1286#0, %1286#1, %1286#2 : i32, i32, i32
    }
    %109 = arith.index_cast %108#2 : i32 to index
    %110:3 = scf.for %arg2 = %109 to %c20 step %c1 iter_args(%arg3 = %108#1, %arg4 = %108#2, %arg5 = %108#1) -> (i32, i32, i32) {
      %1281 = arith.index_cast %arg3 : i32 to index
      %1282 = arith.index_cast %arg4 : i32 to index
      %1283 = memref.load %1[%1282] : memref<4096xi32>
      memref.store %1283, %2[%1281] : memref<256xi32>
      %1284 = arith.addi %arg4, %c1_i32 : i32
      %1285 = arith.addi %arg3, %c1_i32 : i32
      scf.yield %1285, %1284, %1285 : i32, i32, i32
    }
    %111 = arith.index_cast %108#0 : i32 to index
    %112 = arith.index_cast %110#2 : i32 to index
    scf.for %arg2 = %111 to %c24 step %c1 {
      %1281 = arith.subi %arg2, %111 : index
      %1282 = arith.addi %112, %1281 : index
      %1283 = memref.load %1[%arg2] : memref<4096xi32>
      memref.store %1283, %2[%1282] : memref<256xi32>
    }
    scf.for %arg2 = %c0 to %c9 step %c1 {
      %1281 = arith.subi %c23, %arg2 : index
      %1282 = memref.load %2[%1281] : memref<256xi32>
      memref.store %1282, %1[%1281] : memref<4096xi32>
    }
    call @m_sort(%cast, %cast_0, %c24_i32, %c24_i32) : (memref<?xi32>, memref<?xi32>, i32, i32) -> ()
    call @m_sort(%cast, %cast_0, %c25_i32, %c25_i32) : (memref<?xi32>, memref<?xi32>, i32, i32) -> ()
    %113:3 = scf.while (%arg2 = %c24_i32, %arg3 = %c25_i32, %arg4 = %c24_i32) : (i32, i32, i32) -> (i32, i32, i32) {
      %1281 = arith.cmpi sle, %arg4, %c24_i32 : i32
      %1282 = arith.cmpi sle, %arg3, %c25_i32 : i32
      %1283 = arith.andi %1281, %1282 : i1
      scf.condition(%1283) %arg3, %arg2, %arg4 : i32, i32, i32
    } do {
    ^bb0(%arg2: i32, %arg3: i32, %arg4: i32):
      %1281 = arith.index_cast %arg4 : i32 to index
      %1282 = memref.load %1[%1281] : memref<4096xi32>
      %1283 = arith.index_cast %arg2 : i32 to index
      %1284 = memref.load %1[%1283] : memref<4096xi32>
      %1285 = arith.cmpi sle, %1282, %1284 : i32
      %1286:3 = scf.if %1285 -> (i32, i32, i32) {
        %1287 = arith.index_cast %arg3 : i32 to index
        memref.store %1282, %2[%1287] : memref<256xi32>
        %1288 = arith.addi %arg3, %c1_i32 : i32
        %1289 = arith.addi %arg4, %c1_i32 : i32
        scf.yield %1288, %arg2, %1289 : i32, i32, i32
      } else {
        %1287 = arith.index_cast %arg3 : i32 to index
        memref.store %1284, %2[%1287] : memref<256xi32>
        %1288 = arith.addi %arg3, %c1_i32 : i32
        %1289 = arith.addi %arg2, %c1_i32 : i32
        scf.yield %1288, %1289, %arg4 : i32, i32, i32
      }
      scf.yield %1286#0, %1286#1, %1286#2 : i32, i32, i32
    }
    %114 = arith.index_cast %113#2 : i32 to index
    %115:3 = scf.for %arg2 = %114 to %c25 step %c1 iter_args(%arg3 = %113#1, %arg4 = %113#2, %arg5 = %113#1) -> (i32, i32, i32) {
      %1281 = arith.index_cast %arg3 : i32 to index
      %1282 = arith.index_cast %arg4 : i32 to index
      %1283 = memref.load %1[%1282] : memref<4096xi32>
      memref.store %1283, %2[%1281] : memref<256xi32>
      %1284 = arith.addi %arg4, %c1_i32 : i32
      %1285 = arith.addi %arg3, %c1_i32 : i32
      scf.yield %1285, %1284, %1285 : i32, i32, i32
    }
    %116 = arith.index_cast %113#0 : i32 to index
    %117 = arith.index_cast %115#2 : i32 to index
    scf.for %arg2 = %116 to %c26 step %c1 {
      %1281 = arith.subi %arg2, %116 : index
      %1282 = arith.addi %117, %1281 : index
      %1283 = memref.load %1[%arg2] : memref<4096xi32>
      memref.store %1283, %2[%1282] : memref<256xi32>
    }
    scf.for %arg2 = %c0 to %c3 step %c1 {
      %1281 = arith.subi %c25, %arg2 : index
      %1282 = memref.load %2[%1281] : memref<256xi32>
      memref.store %1282, %1[%1281] : memref<4096xi32>
    }
    call @m_sort(%cast, %cast_0, %c26_i32, %c26_i32) : (memref<?xi32>, memref<?xi32>, i32, i32) -> ()
    call @m_sort(%cast, %cast_0, %c27_i32, %c27_i32) : (memref<?xi32>, memref<?xi32>, i32, i32) -> ()
    %118:3 = scf.while (%arg2 = %c26_i32, %arg3 = %c27_i32, %arg4 = %c26_i32) : (i32, i32, i32) -> (i32, i32, i32) {
      %1281 = arith.cmpi sle, %arg4, %c26_i32 : i32
      %1282 = arith.cmpi sle, %arg3, %c27_i32 : i32
      %1283 = arith.andi %1281, %1282 : i1
      scf.condition(%1283) %arg3, %arg2, %arg4 : i32, i32, i32
    } do {
    ^bb0(%arg2: i32, %arg3: i32, %arg4: i32):
      %1281 = arith.index_cast %arg4 : i32 to index
      %1282 = memref.load %1[%1281] : memref<4096xi32>
      %1283 = arith.index_cast %arg2 : i32 to index
      %1284 = memref.load %1[%1283] : memref<4096xi32>
      %1285 = arith.cmpi sle, %1282, %1284 : i32
      %1286:3 = scf.if %1285 -> (i32, i32, i32) {
        %1287 = arith.index_cast %arg3 : i32 to index
        memref.store %1282, %2[%1287] : memref<256xi32>
        %1288 = arith.addi %arg3, %c1_i32 : i32
        %1289 = arith.addi %arg4, %c1_i32 : i32
        scf.yield %1288, %arg2, %1289 : i32, i32, i32
      } else {
        %1287 = arith.index_cast %arg3 : i32 to index
        memref.store %1284, %2[%1287] : memref<256xi32>
        %1288 = arith.addi %arg3, %c1_i32 : i32
        %1289 = arith.addi %arg2, %c1_i32 : i32
        scf.yield %1288, %1289, %arg4 : i32, i32, i32
      }
      scf.yield %1286#0, %1286#1, %1286#2 : i32, i32, i32
    }
    %119 = arith.index_cast %118#2 : i32 to index
    %120:3 = scf.for %arg2 = %119 to %c27 step %c1 iter_args(%arg3 = %118#1, %arg4 = %118#2, %arg5 = %118#1) -> (i32, i32, i32) {
      %1281 = arith.index_cast %arg3 : i32 to index
      %1282 = arith.index_cast %arg4 : i32 to index
      %1283 = memref.load %1[%1282] : memref<4096xi32>
      memref.store %1283, %2[%1281] : memref<256xi32>
      %1284 = arith.addi %arg4, %c1_i32 : i32
      %1285 = arith.addi %arg3, %c1_i32 : i32
      scf.yield %1285, %1284, %1285 : i32, i32, i32
    }
    %121 = arith.index_cast %118#0 : i32 to index
…
    ^bb0(%arg2: i32, %arg3: i32, %arg4: i32):
      %1281 = arith.index_cast %arg4 : i32 to index
      %1282 = memref.load %1[%1281] : memref<4096xi32>
      %1283 = arith.index_cast %arg2 : i32 to index
      %1284 = memref.load %1[%1283] : memref<4096xi32>
      %1285 = arith.cmpi sle, %1282, %1284 : i32
      %1286:3 = scf.if %1285 -> (i32, i32, i32) {
        %1287 = arith.index_cast %arg3 : i32 to index
        memref.store %1282, %2[%1287] : memref<256xi32>
        %1288 = arith.addi %arg3, %c1_i32 : i32
        %1289 = arith.addi %arg4, %c1_i32 : i32
        scf.yield %1288, %arg2, %1289 : i32, i32, i32
      } else {
        %1287 = arith.index_cast %arg3 : i32 to index
        memref.store %1284, %2[%1287] : memref<256xi32>
        %1288 = arith.addi %arg3, %c1_i32 : i32
        %1289 = arith.addi %arg2, %c1_i32 : i32
        scf.yield %1288, %1289, %arg4 : i32, i32, i32
      }
      scf.yield %1286#0, %1286#1, %1286#2 : i32, i32, i32
    }
    %1179 = arith.index_cast %1178#2 : i32 to index
    %1180:3 = scf.for %arg2 = %1179 to %c232 step %c1 iter_args(%arg3 = %1178#1, %arg4 = %1178#2, %arg5 = %1178#1) -> (i32, i32, i32) {
      %1281 = arith.index_cast %arg3 : i32 to index
      %1282 = arith.index_cast %arg4 : i32 to index
      %1283 = memref.load %1[%1282] : memref<4096xi32>
      memref.store %1283, %2[%1281] : memref<256xi32>
      %1284 = arith.addi %arg4, %c1_i32 : i32
      %1285 = arith.addi %arg3, %c1_i32 : i32
      scf.yield %1285, %1284, %1285 : i32, i32, i32
    }
    %1181 = arith.index_cast %1178#0 : i32 to index
    %1182 = arith.index_cast %1180#2 : i32 to index
    scf.for %arg2 = %1181 to %c240 step %c1 {
      %1281 = arith.subi %arg2, %1181 : index
      %1282 = arith.addi %1182, %1281 : index
      %1283 = memref.load %1[%arg2] : memref<4096xi32>
      memref.store %1283, %2[%1282] : memref<256xi32>
    }
    scf.for %arg2 = %c0 to %c17 step %c1 {
      %1281 = arith.subi %c239, %arg2 : index
      %1282 = memref.load %2[%1281] : memref<256xi32>
      memref.store %1282, %1[%1281] : memref<4096xi32>
    }
    call @m_sort(%cast, %cast_0, %c240_i32, %c240_i32) : (memref<?xi32>, memref<?xi32>, i32, i32) -> ()
    call @m_sort(%cast, %cast_0, %c241_i32, %c241_i32) : (memref<?xi32>, memref<?xi32>, i32, i32) -> ()
    %1183:3 = scf.while (%arg2 = %c240_i32, %arg3 = %c241_i32, %arg4 = %c240_i32) : (i32, i32, i32) -> (i32, i32, i32) {
      %1281 = arith.cmpi sle, %arg4, %c240_i32 : i32
      %1282 = arith.cmpi sle, %arg3, %c241_i32 : i32
      %1283 = arith.andi %1281, %1282 : i1
      scf.condition(%1283) %arg3, %arg2, %arg4 : i32, i32, i32
    } do {
    ^bb0(%arg2: i32, %arg3: i32, %arg4: i32):
      %1281 = arith.index_cast %arg4 : i32 to index
      %1282 = memref.load %1[%1281] : memref<4096xi32>
      %1283 = arith.index_cast %arg2 : i32 to index
      %1284 = memref.load %1[%1283] : memref<4096xi32>
      %1285 = arith.cmpi sle, %1282, %1284 : i32
      %1286:3 = scf.if %1285 -> (i32, i32, i32) {
        %1287 = arith.index_cast %arg3 : i32 to index
        memref.store %1282, %2[%1287] : memref<256xi32>
        %1288 = arith.addi %arg3, %c1_i32 : i32
        %1289 = arith.addi %arg4, %c1_i32 : i32
        scf.yield %1288, %arg2, %1289 : i32, i32, i32
      } else {
        %1287 = arith.index_cast %arg3 : i32 to index
        memref.store %1284, %2[%1287] : memref<256xi32>
        %1288 = arith.addi %arg3, %c1_i32 : i32
        %1289 = arith.addi %arg2, %c1_i32 : i32
        scf.yield %1288, %1289, %arg4 : i32, i32, i32
      }
      scf.yield %1286#0, %1286#1, %1286#2 : i32, i32, i32
    }
    %1184 = arith.index_cast %1183#2 : i32 to index
    %1185:3 = scf.for %arg2 = %1184 to %c241 step %c1 iter_args(%arg3 = %1183#1, %arg4 = %1183#2, %arg5 = %1183#1) -> (i32, i32, i32) {
      %1281 = arith.index_cast %arg3 : i32 to index
      %1282 = arith.index_cast %arg4 : i32 to index
      %1283 = memref.load %1[%1282] : memref<4096xi32>
      memref.store %1283, %2[%1281] : memref<256xi32>
      %1284 = arith.addi %arg4, %c1_i32 : i32
      %1285 = arith.addi %arg3, %c1_i32 : i32
      scf.yield %1285, %1284, %1285 : i32, i32, i32
    }
    %1186 = arith.index_cast %1183#0 : i32 to index
    %1187 = arith.index_cast %1185#2 : i32 to index
    scf.for %arg2 = %1186 to %c242 step %c1 {
      %1281 = arith.subi %arg2, %1186 : index
      %1282 = arith.addi %1187, %1281 : index
      %1283 = memref.load %1[%arg2] : memref<4096xi32>
      memref.store %1283, %2[%1282] : memref<256xi32>
    }
    scf.for %arg2 = %c0 to %c3 step %c1 {
      %1281 = arith.subi %c241, %arg2 : index
      %1282 = memref.load %2[%1281] : memref<256xi32>
      memref.store %1282, %1[%1281] : memref<4096xi32>
    }
    call @m_sort(%cast, %cast_0, %c242_i32, %c242_i32) : (memref<?xi32>, memref<?xi32>, i32, i32) -> ()
    call @m_sort(%cast, %cast_0, %c243_i32, %c243_i32) : (memref<?xi32>, memref<?xi32>, i32, i32) -> ()
    %1188:3 = scf.while (%arg2 = %c242_i32, %arg3 = %c243_i32, %arg4 = %c242_i32) : (i32, i32, i32) -> (i32, i32, i32) {
      %1281 = arith.cmpi sle, %arg4, %c242_i32 : i32
      %1282 = arith.cmpi sle, %arg3, %c243_i32 : i32
      %1283 = arith.andi %1281, %1282 : i1
      scf.condition(%1283) %arg3, %arg2, %arg4 : i32, i32, i32
    } do {
    ^bb0(%arg2: i32, %arg3: i32, %arg4: i32):
      %1281 = arith.index_cast %arg4 : i32 to index
      %1282 = memref.load %1[%1281] : memref<4096xi32>
      %1283 = arith.index_cast %arg2 : i32 to index
      %1284 = memref.load %1[%1283] : memref<4096xi32>
      %1285 = arith.cmpi sle, %1282, %1284 : i32
      %1286:3 = scf.if %1285 -> (i32, i32, i32) {
        %1287 = arith.index_cast %arg3 : i32 to index
        memref.store %1282, %2[%1287] : memref<256xi32>
        %1288 = arith.addi %arg3, %c1_i32 : i32
        %1289 = arith.addi %arg4, %c1_i32 : i32
        scf.yield %1288, %arg2, %1289 : i32, i32, i32
      } else {
        %1287 = arith.index_cast %arg3 : i32 to index
        memref.store %1284, %2[%1287] : memref<256xi32>
        %1288 = arith.addi %arg3, %c1_i32 : i32
        %1289 = arith.addi %arg2, %c1_i32 : i32
        scf.yield %1288, %1289, %arg4 : i32, i32, i32
      }
      scf.yield %1286#0, %1286#1, %1286#2 : i32, i32, i32
    }
    %1189 = arith.index_cast %1188#2 : i32 to index
    %1190:3 = scf.for %arg2 = %1189 to %c243 step %c1 iter_args(%arg3 = %1188#1, %arg4 = %1188#2, %arg5 = %1188#1) -> (i32, i32, i32) {
      %1281 = arith.index_cast %arg3 : i32 to index
      %1282 = arith.index_cast %arg4 : i32 to index
      %1283 = memref.load %1[%1282] : memref<4096xi32>
      memref.store %1283, %2[%1281] : memref<256xi32>
      %1284 = arith.addi %arg4, %c1_i32 : i32
      %1285 = arith.addi %arg3, %c1_i32 : i32
      scf.yield %1285, %1284, %1285 : i32, i32, i32
    }
    %1191 = arith.index_cast %1188#0 : i32 to index
    %1192 = arith.index_cast %1190#2 : i32 to index
    scf.for %arg2 = %1191 to %c244 step %c1 {
      %1281 = arith.subi %arg2, %1191 : index
      %1282 = arith.addi %1192, %1281 : index
      %1283 = memref.load %1[%arg2] : memref<4096xi32>
      memref.store %1283, %2[%1282] : memref<256xi32>
    }
    scf.for %arg2 = %c0 to %c3 step %c1 {
      %1281 = arith.subi %c243, %arg2 : index
      %1282 = memref.load %2[%1281] : memref<256xi32>
      memref.store %1282, %1[%1281] : memref<4096xi32>
    }
    %1193:3 = scf.while (%arg2 = %c240_i32, %arg3 = %c242_i32, %arg4 = %c240_i32) : (i32, i32, i32) -> (i32, i32, i32) {
      %1281 = arith.cmpi sle, %arg4, %c241_i32 : i32
      %1282 = arith.cmpi sle, %arg3, %c243_i32 : i32
      %1283 = arith.andi %1281, %1282 : i1
      scf.condition(%1283) %arg3, %arg2, %arg4 : i32, i32, i32
    } do {
    ^bb0(%arg2: i32, %arg3: i32, %arg4: i32):
      %1281 = arith.index_cast %arg4 : i32 to index
      %1282 = memref.load %1[%1281] : memref<4096xi32>
      %1283 = arith.index_cast %arg2 : i32 to index
      %1284 = memref.load %1[%1283] : memref<4096xi32>
      %1285 = arith.cmpi sle, %1282, %1284 : i32
      %1286:3 = scf.if %1285 -> (i32, i32, i32) {
        %1287 = arith.index_cast %arg3 : i32 to index
        memref.store %1282, %2[%1287] : memref<256xi32>
        %1288 = arith.addi %arg3, %c1_i32 : i32
        %1289 = arith.addi %arg4, %c1_i32 : i32
        scf.yield %1288, %arg2, %1289 : i32, i32, i32
      } else {
        %1287 = arith.index_cast %arg3 : i32 to index
        memref.store %1284, %2[%1287] : memref<256xi32>
        %1288 = arith.addi %arg3, %c1_i32 : i32
        %1289 = arith.addi %arg2, %c1_i32 : i32
        scf.yield %1288, %1289, %arg4 : i32, i32, i32
      }
      scf.yield %1286#0, %1286#1, %1286#2 : i32, i32, i32
    }
    %1194 = arith.index_cast %1193#2 : i32 to index
    %1195:3 = scf.for %arg2 = %1194 to %c242 step %c1 iter_args(%arg3 = %1193#1, %arg4 = %1193#2, %arg5 = %1193#1) -> (i32, i32, i32) {
      %1281 = arith.index_cast %arg3 : i32 to index
      %1282 = arith.index_cast %arg4 : i32 to index
      %1283 = memref.load %1[%1282] : memref<4096xi32>
      memref.store %1283, %2[%1281] : memref<256xi32>
      %1284 = arith.addi %arg4, %c1_i32 : i32
      %1285 = arith.addi %arg3, %c1_i32 : i32
      scf.yield %1285, %1284, %1285 : i32, i32, i32
    }
    %1196 = arith.index_cast %1193#0 : i32 to index
    %1197 = arith.index_cast %1195#2 : i32 to index
    scf.for %arg2 = %1196 to %c244 step %c1 {
      %1281 = arith.subi %arg2, %1196 : index
      %1282 = arith.addi %1197, %1281 : index
      %1283 = memref.load %1[%arg2] : memref<4096xi32>
      memref.store %1283, %2[%1282] : memref<256xi32>
    }
    scf.for %arg2 = %c0 to %c5 step %c1 {
      %1281 = arith.subi %c243, %arg2 : index
      %1282 = memref.load %2[%1281] : memref<256xi32>
      memref.store %1282, %1[%1281] : memref<4096xi32>
    }
    call @m_sort(%cast, %cast_0, %c244_i32, %c244_i32) : (memref<?xi32>, memref<?xi32>, i32, i32) -> ()
    call @m_sort(%cast, %cast_0, %c245_i32, %c245_i32) : (memref<?xi32>, memref<?xi32>, i32, i32) -> ()
    %1198:3 = scf.while (%arg2 = %c244_i32, %arg3 = %c245_i32, %arg4 = %c244_i32) : (i32, i32, i32) -> (i32, i32, i32) {
      %1281 = arith.cmpi sle, %arg4, %c244_i32 : i32
      %1282 = arith.cmpi sle, %arg3, %c245_i32 : i32
      %1283 = arith.andi %1281, %1282 : i1
      scf.condition(%1283) %arg3, %arg2, %arg4 : i32, i32, i32
    } do {
    ^bb0(%arg2: i32, %arg3: i32, %arg4: i32):
      %1281 = arith.index_cast %arg4 : i32 to index
      %1282 = memref.load %1[%1281] : memref<4096xi32>
      %1283 = arith.index_cast %arg2 : i32 to index
      %1284 = memref.load %1[%1283] : memref<4096xi32>
      %1285 = arith.cmpi sle, %1282, %1284 : i32
      %1286:3 = scf.if %1285 -> (i32, i32, i32) {
        %1287 = arith.index_cast %arg3 : i32 to index
        memref.store %1282, %2[%1287] : memref<256xi32>
        %1288 = arith.addi %arg3, %c1_i32 : i32
        %1289 = arith.addi %arg4, %c1_i32 : i32
        scf.yield %1288, %arg2, %1289 : i32, i32, i32
      } else {
        %1287 = arith.index_cast %arg3 : i32 to index
        memref.store %1284, %2[%1287] : memref<256xi32>
        %1288 = arith.addi %arg3, %c1_i32 : i32
        %1289 = arith.addi %arg2, %c1_i32 : i32
        scf.yield %1288, %1289, %arg4 : i32, i32, i32
      }
      scf.yield %1286#0, %1286#1, %1286#2 : i32, i32, i32
    }
    %1199 = arith.index_cast %1198#2 : i32 to index
    %1200:3 = scf.for %arg2 = %1199 to %c245 step %c1 iter_args(%arg3 = %1198#1, %arg4 = %1198#2, %arg5 = %1198#1) -> (i32, i32, i32) {
      %1281 = arith.index_cast %arg3 : i32 to index
      %1282 = arith.index_cast %arg4 : i32 to index
      %1283 = memref.load %1[%1282] : memref<4096xi32>
      memref.store %1283, %2[%1281] : memref<256xi32>
      %1284 = arith.addi %arg4, %c1_i32 : i32
      %1285 = arith.addi %arg3, %c1_i32 : i32
      scf.yield %1285, %1284, %1285 : i32, i32, i32
    }
    %1201 = arith.index_cast %1198#0 : i32 to index
    %1202 = arith.index_cast %1200#2 : i32 to index
    scf.for %arg2 = %1201 to %c246 step %c1 {
      %1281 = arith.subi %arg2, %1201 : index
      %1282 = arith.addi %1202, %1281 : index
      %1283 = memref.load %1[%arg2] : memref<4096xi32>
      memref.store %1283, %2[%1282] : memref<256xi32>
    }
    scf.for %arg2 = %c0 to %c3 step %c1 {
      %1281 = arith.subi %c245, %arg2 : index
      %1282 = memref.load %2[%1281] : memref<256xi32>
      memref.store %1282, %1[%1281] : memref<4096xi32>
    }
    call @m_sort(%cast, %cast_0, %c246_i32, %c246_i32) : (memref<?xi32>, memref<?xi32>, i32, i32) -> ()
    call @m_sort(%cast, %cast_0, %c247_i32, %c247_i32) : (memref<?xi32>, memref<?xi32>, i32, i32) -> ()
    %1203:3 = scf.while (%arg2 = %c246_i32, %arg3 = %c247_i32, %arg4 = %c246_i32) : (i32, i32, i32) -> (i32, i32, i32) {
      %1281 = arith.cmpi sle, %arg4, %c246_i32 : i32
      %1282 = arith.cmpi sle, %arg3, %c247_i32 : i32
      %1283 = arith.andi %1281, %1282 : i1
      scf.condition(%1283) %arg3, %arg2, %arg4 : i32, i32, i32
    } do {
    ^bb0(%arg2: i32, %arg3: i32, %arg4: i32):
      %1281 = arith.index_cast %arg4 : i32 to index
      %1282 = memref.load %1[%1281] : memref<4096xi32>
      %1283 = arith.index_cast %arg2 : i32 to index
      %1284 = memref.load %1[%1283] : memref<4096xi32>
      %1285 = arith.cmpi sle, %1282, %1284 : i32
      %1286:3 = scf.if %1285 -> (i32, i32, i32) {
        %1287 = arith.index_cast %arg3 : i32 to index
        memref.store %1282, %2[%1287] : memref<256xi32>
        %1288 = arith.addi %arg3, %c1_i32 : i32
        %1289 = arith.addi %arg4, %c1_i32 : i32
        scf.yield %1288, %arg2, %1289 : i32, i32, i32
      } else {
        %1287 = arith.index_cast %arg3 : i32 to index
        memref.store %1284, %2[%1287] : memref<256xi32>
        %1288 = arith.addi %arg3, %c1_i32 : i32
        %1289 = arith.addi %arg2, %c1_i32 : i32
        scf.yield %1288, %1289, %arg4 : i32, i32, i32
      }
      scf.yield %1286#0, %1286#1, %1286#2 : i32, i32, i32
    }
    %1204 = arith.index_cast %1203#2 : i32 to index
    %1205:3 = scf.for %arg2 = %1204 to %c247 step %c1 iter_args(%arg3 = %1203#1, %arg4 = %1203#2, %arg5 = %1203#1) -> (i32, i32, i32) {
      %1281 = arith.index_cast %arg3 : i32 to index
      %1282 = arith.index_cast %arg4 : i32 to index
      %1283 = memref.load %1[%1282] : memref<4096xi32>
      memref.store %1283, %2[%1281] : memref<256xi32>
      %1284 = arith.addi %arg4, %c1_i32 : i32
      %1285 = arith.addi %arg3, %c1_i32 : i32
      scf.yield %1285, %1284, %1285 : i32, i32, i32
    }
    %1206 = arith.index_cast %1203#0 : i32 to index
    %1207 = arith.index_cast %1205#2 : i32 to index
    scf.for %arg2 = %1206 to %c248 step %c1 {
      %1281 = arith.subi %arg2, %1206 : index
      %1282 = arith.addi %1207, %1281 : index
      %1283 = memref.load %1[%arg2] : memref<4096xi32>
      memref.store %1283, %2[%1282] : memref<256xi32>
    }
    scf.for %arg2 = %c0 to %c3 step %c1 {
      %1281 = arith.subi %c247, %arg2 : index
      %1282 = memref.load %2[%1281] : memref<256xi32>
      memref.store %1282, %1[%1281] : memref<4096xi32>
    }
    %1208:3 = scf.while (%arg2 = %c244_i32, %arg3 = %c246_i32, %arg4 = %c244_i32) : (i32, i32, i32) -> (i32, i32, i32) {
      %1281 = arith.cmpi sle, %arg4, %c245_i32 : i32
      %1282 = arith.cmpi sle, %arg3, %c247_i32 : i32
      %1283 = arith.andi %1281, %1282 : i1
      scf.condition(%1283) %arg3, %arg2, %arg4 : i32, i32, i32
    } do {
    ^bb0(%arg2: i32, %arg3: i32, %arg4: i32):
      %1281 = arith.index_cast %arg4 : i32 to index
      %1282 = memref.load %1[%1281] : memref<4096xi32>
      %1283 = arith.index_cast %arg2 : i32 to index
      %1284 = memref.load %1[%1283] : memref<4096xi32>
      %1285 = arith.cmpi sle, %1282, %1284 : i32
      %1286:3 = scf.if %1285 -> (i32, i32, i32) {
        %1287 = arith.index_cast %arg3 : i32 to index
        memref.store %1282, %2[%1287] : memref<256xi32>
        %1288 = arith.addi %arg3, %c1_i32 : i32
        %1289 = arith.addi %arg4, %c1_i32 : i32
        scf.yield %1288, %arg2, %1289 : i32, i32, i32
      } else {
        %1287 = arith.index_cast %arg3 : i32 to index
        memref.store %1284, %2[%1287] : memref<256xi32>
        %1288 = arith.addi %arg3, %c1_i32 : i32
        %1289 = arith.addi %arg2, %c1_i32 : i32
        scf.yield %1288, %1289, %arg4 : i32, i32, i32
      }
      scf.yield %1286#0, %1286#1, %1286#2 : i32, i32, i32
    }
    %1209 = arith.index_cast %1208#2 : i32 to index
    %1210:3 = scf.for %arg2 = %1209 to %c246 step %c1 iter_args(%arg3 = %1208#1, %arg4 = %1208#2, %arg5 = %1208#1) -> (i32, i32, i32) {
      %1281 = arith.index_cast %arg3 : i32 to index
      %1282 = arith.index_cast %arg4 : i32 to index
      %1283 = memref.load %1[%1282] : memref<4096xi32>
      memref.store %1283, %2[%1281] : memref<256xi32>
      %1284 = arith.addi %arg4, %c1_i32 : i32
      %1285 = arith.addi %arg3, %c1_i32 : i32
      scf.yield %1285, %1284, %1285 : i32, i32, i32
    }
    %1211 = arith.index_cast %1208#0 : i32 to index
    %1212 = arith.index_cast %1210#2 : i32 to index
    scf.for %arg2 = %1211 to %c248 step %c1 {
      %1281 = arith.subi %arg2, %1211 : index
      %1282 = arith.addi %1212, %1281 : index
      %1283 = memref.load %1[%arg2] : memref<4096xi32>
      memref.store %1283, %2[%1282] : memref<256xi32>
    }
    scf.for %arg2 = %c0 to %c5 step %c1 {
      %1281 = arith.subi %c247, %arg2 : index
      %1282 = memref.load %2[%1281] : memref<256xi32>
      memref.store %1282, %1[%1281] : memref<4096xi32>
    }
    %1213:3 = scf.while (%arg2 = %c240_i32, %arg3 = %c244_i32, %arg4 = %c240_i32) : (i32, i32, i32) -> (i32, i32, i32) {
      %1281 = arith.cmpi sle, %arg4, %c243_i32 : i32
      %1282 = arith.cmpi sle, %arg3, %c247_i32 : i32
      %1283 = arith.andi %1281, %1282 : i1
      scf.condition(%1283) %arg3, %arg2, %arg4 : i32, i32, i32
    } do {
    ^bb0(%arg2: i32, %arg3: i32, %arg4: i32):
      %1281 = arith.index_cast %arg4 : i32 to index
      %1282 = memref.load %1[%1281] : memref<4096xi32>
      %1283 = arith.index_cast %arg2 : i32 to index
      %1284 = memref.load %1[%1283] : memref<4096xi32>
      %1285 = arith.cmpi sle, %1282, %1284 : i32
      %1286:3 = scf.if %1285 -> (i32, i32, i32) {
        %1287 = arith.index_cast %arg3 : i32 to index
        memref.store %1282, %2[%1287] : memref<256xi32>
        %1288 = arith.addi %arg3, %c1_i32 : i32
        %1289 = arith.addi %arg4, %c1_i32 : i32
        scf.yield %1288, %arg2, %1289 : i32, i32, i32
      } else {
        %1287 = arith.index_cast %arg3 : i32 to index
        memref.store %1284, %2[%1287] : memref<256xi32>
        %1288 = arith.addi %arg3, %c1_i32 : i32
        %1289 = arith.addi %arg2, %c1_i32 : i32
        scf.yield %1288, %1289, %arg4 : i32, i32, i32
      }
      scf.yield %1286#0, %1286#1, %1286#2 : i32, i32, i32
    }
    %1214 = arith.index_cast %1213#2 : i32 to index
    %1215:3 = scf.for %arg2 = %1214 to %c244 step %c1 iter_args(%arg3 = %1213#1, %arg4 = %1213#2, %arg5 = %1213#1) -> (i32, i32, i32) {
      %1281 = arith.index_cast %arg3 : i32 to index
      %1282 = arith.index_cast %arg4 : i32 to index
      %1283 = memref.load %1[%1282] : memref<4096xi32>
      memref.store %1283, %2[%1281] : memref<256xi32>
      %1284 = arith.addi %arg4, %c1_i32 : i32
      %1285 = arith.addi %arg3, %c1_i32 : i32
      scf.yield %1285, %1284, %1285 : i32, i32, i32
    }
    %1216 = arith.index_cast %1213#0 : i32 to index
    %1217 = arith.index_cast %1215#2 : i32 to index
    scf.for %arg2 = %1216 to %c248 step %c1 {
      %1281 = arith.subi %arg2, %1216 : index
      %1282 = arith.addi %1217, %1281 : index
      %1283 = memref.load %1[%arg2] : memref<4096xi32>
      memref.store %1283, %2[%1282] : memref<256xi32>
    }
    scf.for %arg2 = %c0 to %c9 step %c1 {
      %1281 = arith.subi %c247, %arg2 : index
      %1282 = memref.load %2[%1281] : memref<256xi32>
      memref.store %1282, %1[%1281] : memref<4096xi32>
    }
    call @m_sort(%cast, %cast_0, %c248_i32, %c248_i32) : (memref<?xi32>, memref<?xi32>, i32, i32) -> ()
    call @m_sort(%cast, %cast_0, %c249_i32, %c249_i32) : (memref<?xi32>, memref<?xi32>, i32, i32) -> ()
    %1218:3 = scf.while (%arg2 = %c248_i32, %arg3 = %c249_i32, %arg4 = %c248_i32) : (i32, i32, i32) -> (i32, i32, i32) {
      %1281 = arith.cmpi sle, %arg4, %c248_i32 : i32
      %1282 = arith.cmpi sle, %arg3, %c249_i32 : i32
      %1283 = arith.andi %1281, %1282 : i1
      scf.condition(%1283) %arg3, %arg2, %arg4 : i32, i32, i32
    } do {
    ^bb0(%arg2: i32, %arg3: i32, %arg4: i32):
      %1281 = arith.index_cast %arg4 : i32 to index
      %1282 = memref.load %1[%1281] : memref<4096xi32>
      %1283 = arith.index_cast %arg2 : i32 to index
      %1284 = memref.load %1[%1283] : memref<4096xi32>
      %1285 = arith.cmpi sle, %1282, %1284 : i32
      %1286:3 = scf.if %1285 -> (i32, i32, i32) {
        %1287 = arith.index_cast %arg3 : i32 to index
        memref.store %1282, %2[%1287] : memref<256xi32>
        %1288 = arith.addi %arg3, %c1_i32 : i32
        %1289 = arith.addi %arg4, %c1_i32 : i32
        scf.yield %1288, %arg2, %1289 : i32, i32, i32
      } else {
        %1287 = arith.index_cast %arg3 : i32 to index
        memref.store %1284, %2[%1287] : memref<256xi32>
        %1288 = arith.addi %arg3, %c1_i32 : i32
        %1289 = arith.addi %arg2, %c1_i32 : i32
        scf.yield %1288, %1289, %arg4 : i32, i32, i32
      }
      scf.yield %1286#0, %1286#1, %1286#2 : i32, i32, i32
    }
    %1219 = arith.index_cast %1218#2 : i32 to index
    %1220:3 = scf.for %arg2 = %1219 to %c249 step %c1 iter_args(%arg3 = %1218#1, %arg4 = %1218#2, %arg5 = %1218#1) -> (i32, i32, i32) {
      %1281 = arith.index_cast %arg3 : i32 to index
      %1282 = arith.index_cast %arg4 : i32 to index
      %1283 = memref.load %1[%1282] : memref<4096xi32>
      memref.store %1283, %2[%1281] : memref<256xi32>
      %1284 = arith.addi %arg4, %c1_i32 : i32
      %1285 = arith.addi %arg3, %c1_i32 : i32
      scf.yield %1285, %1284, %1285 : i32, i32, i32
    }
    %1221 = arith.index_cast %1218#0 : i32 to index
    %1222 = arith.index_cast %1220#2 : i32 to index
    scf.for %arg2 = %1221 to %c250 step %c1 {
      %1281 = arith.subi %arg2, %1221 : index
      %1282 = arith.addi %1222, %1281 : index
      %1283 = memref.load %1[%arg2] : memref<4096xi32>
      memref.store %1283, %2[%1282] : memref<256xi32>
    }
    scf.for %arg2 = %c0 to %c3 step %c1 {
      %1281 = arith.subi %c249, %arg2 : index
      %1282 = memref.load %2[%1281] : memref<256xi32>
      memref.store %1282, %1[%1281] : memref<4096xi32>
    }
    call @m_sort(%cast, %cast_0, %c250_i32, %c250_i32) : (memref<?xi32>, memref<?xi32>, i32, i32) -> ()
    call @m_sort(%cast, %cast_0, %c251_i32, %c251_i32) : (memref<?xi32>, memref<?xi32>, i32, i32) -> ()
    %1223:3 = scf.while (%arg2 = %c250_i32, %arg3 = %c251_i32, %arg4 = %c250_i32) : (i32, i32, i32) -> (i32, i32, i32) {
      %1281 = arith.cmpi sle, %arg4, %c250_i32 : i32
      %1282 = arith.cmpi sle, %arg3, %c251_i32 : i32
      %1283 = arith.andi %1281, %1282 : i1
      scf.condition(%1283) %arg3, %arg2, %arg4 : i32, i32, i32
    } do {
    ^bb0(%arg2: i32, %arg3: i32, %arg4: i32):
      %1281 = arith.index_cast %arg4 : i32 to index
      %1282 = memref.load %1[%1281] : memref<4096xi32>
      %1283 = arith.index_cast %arg2 : i32 to index
      %1284 = memref.load %1[%1283] : memref<4096xi32>
      %1285 = arith.cmpi sle, %1282, %1284 : i32
      %1286:3 = scf.if %1285 -> (i32, i32, i32) {
        %1287 = arith.index_cast %arg3 : i32 to index
        memref.store %1282, %2[%1287] : memref<256xi32>
        %1288 = arith.addi %arg3, %c1_i32 : i32
        %1289 = arith.addi %arg4, %c1_i32 : i32
        scf.yield %1288, %arg2, %1289 : i32, i32, i32
      } else {
        %1287 = arith.index_cast %arg3 : i32 to index
        memref.store %1284, %2[%1287] : memref<256xi32>
        %1288 = arith.addi %arg3, %c1_i32 : i32
        %1289 = arith.addi %arg2, %c1_i32 : i32
        scf.yield %1288, %1289, %arg4 : i32, i32, i32
      }
      scf.yield %1286#0, %1286#1, %1286#2 : i32, i32, i32
    }
    %1224 = arith.index_cast %1223#2 : i32 to index
    %1225:3 = scf.for %arg2 = %1224 to %c251 step %c1 iter_args(%arg3 = %1223#1, %arg4 = %1223#2, %arg5 = %1223#1) -> (i32, i32, i32) {
      %1281 = arith.index_cast %arg3 : i32 to index
      %1282 = arith.index_cast %arg4 : i32 to index
      %1283 = memref.load %1[%1282] : memref<4096xi32>
      memref.store %1283, %2[%1281] : memref<256xi32>
      %1284 = arith.addi %arg4, %c1_i32 : i32
      %1285 = arith.addi %arg3, %c1_i32 : i32
      scf.yield %1285, %1284, %1285 : i32, i32, i32
    }
    %1226 = arith.index_cast %1223#0 : i32 to index
    %1227 = arith.index_cast %1225#2 : i32 to index
    scf.for %arg2 = %1226 to %c252 step %c1 {
      %1281 = arith.subi %arg2, %1226 : index
      %1282 = arith.addi %1227, %1281 : index
      %1283 = memref.load %1[%arg2] : memref<4096xi32>
      memref.store %1283, %2[%1282] : memref<256xi32>
    }
    scf.for %arg2 = %c0 to %c3 step %c1 {
      %1281 = arith.subi %c251, %arg2 : index
      %1282 = memref.load %2[%1281] : memref<256xi32>
      memref.store %1282, %1[%1281] : memref<4096xi32>
    }
    %1228:3 = scf.while (%arg2 = %c248_i32, %arg3 = %c250_i32, %arg4 = %c248_i32) : (i32, i32, i32) -> (i32, i32, i32) {
      %1281 = arith.cmpi sle, %arg4, %c249_i32 : i32
      %1282 = arith.cmpi sle, %arg3, %c251_i32 : i32
      %1283 = arith.andi %1281, %1282 : i1
      scf.condition(%1283) %arg3, %arg2, %arg4 : i32, i32, i32
    } do {
    ^bb0(%arg2: i32, %arg3: i32, %arg4: i32):
      %1281 = arith.index_cast %arg4 : i32 to index
      %1282 = memref.load %1[%1281] : memref<4096xi32>
      %1283 = arith.index_cast %arg2 : i32 to index
      %1284 = memref.load %1[%1283] : memref<4096xi32>
      %1285 = arith.cmpi sle, %1282, %1284 : i32
      %1286:3 = scf.if %1285 -> (i32, i32, i32) {
        %1287 = arith.index_cast %arg3 : i32 to index
        memref.store %1282, %2[%1287] : memref<256xi32>
        %1288 = arith.addi %arg3, %c1_i32 : i32
        %1289 = arith.addi %arg4, %c1_i32 : i32
        scf.yield %1288, %arg2, %1289 : i32, i32, i32
      } else {
        %1287 = arith.index_cast %arg3 : i32 to index
        memref.store %1284, %2[%1287] : memref<256xi32>
        %1288 = arith.addi %arg3, %c1_i32 : i32
        %1289 = arith.addi %arg2, %c1_i32 : i32
        scf.yield %1288, %1289, %arg4 : i32, i32, i32
      }
      scf.yield %1286#0, %1286#1, %1286#2 : i32, i32, i32
    }
    %1229 = arith.index_cast %1228#2 : i32 to index
    %1230:3 = scf.for %arg2 = %1229 to %c250 step %c1 iter_args(%arg3 = %1228#1, %arg4 = %1228#2, %arg5 = %1228#1) -> (i32, i32, i32) {
      %1281 = arith.index_cast %arg3 : i32 to index
      %1282 = arith.index_cast %arg4 : i32 to index
      %1283 = memref.load %1[%1282] : memref<4096xi32>
      memref.store %1283, %2[%1281] : memref<256xi32>
      %1284 = arith.addi %arg4, %c1_i32 : i32
      %1285 = arith.addi %arg3, %c1_i32 : i32
      scf.yield %1285, %1284, %1285 : i32, i32, i32
    }
    %1231 = arith.index_cast %1228#0 : i32 to index
    %1232 = arith.index_cast %1230#2 : i32 to index
    scf.for %arg2 = %1231 to %c252 step %c1 {
      %1281 = arith.subi %arg2, %1231 : index
      %1282 = arith.addi %1232, %1281 : index
      %1283 = memref.load %1[%arg2] : memref<4096xi32>
      memref.store %1283, %2[%1282] : memref<256xi32>
    }
    scf.for %arg2 = %c0 to %c5 step %c1 {
      %1281 = arith.subi %c251, %arg2 : index
      %1282 = memref.load %2[%1281] : memref<256xi32>
      memref.store %1282, %1[%1281] : memref<4096xi32>
    }
    call @m_sort(%cast, %cast_0, %c252_i32, %c252_i32) : (memref<?xi32>, memref<?xi32>, i32, i32) -> ()
    call @m_sort(%cast, %cast_0, %c253_i32, %c253_i32) : (memref<?xi32>, memref<?xi32>, i32, i32) -> ()
    %1233:3 = scf.while (%arg2 = %c252_i32, %arg3 = %c253_i32, %arg4 = %c252_i32) : (i32, i32, i32) -> (i32, i32, i32) {
      %1281 = arith.cmpi sle, %arg4, %c252_i32 : i32
      %1282 = arith.cmpi sle, %arg3, %c253_i32 : i32
      %1283 = arith.andi %1281, %1282 : i1
      scf.condition(%1283) %arg3, %arg2, %arg4 : i32, i32, i32
    } do {
    ^bb0(%arg2: i32, %arg3: i32, %arg4: i32):
      %1281 = arith.index_cast %arg4 : i32 to index
      %1282 = memref.load %1[%1281] : memref<4096xi32>
      %1283 = arith.index_cast %arg2 : i32 to index
      %1284 = memref.load %1[%1283] : memref<4096xi32>
      %1285 = arith.cmpi sle, %1282, %1284 : i32
      %1286:3 = scf.if %1285 -> (i32, i32, i32) {
        %1287 = arith.index_cast %arg3 : i32 to index
        memref.store %1282, %2[%1287] : memref<256xi32>
        %1288 = arith.addi %arg3, %c1_i32 : i32
        %1289 = arith.addi %arg4, %c1_i32 : i32
        scf.yield %1288, %arg2, %1289 : i32, i32, i32
      } else {
        %1287 = arith.index_cast %arg3 : i32 to index
        memref.store %1284, %2[%1287] : memref<256xi32>
        %1288 = arith.addi %arg3, %c1_i32 : i32
        %1289 = arith.addi %arg2, %c1_i32 : i32
        scf.yield %1288, %1289, %arg4 : i32, i32, i32
      }
      scf.yield %1286#0, %1286#1, %1286#2 : i32, i32, i32
    }
    %1234 = arith.index_cast %1233#2 : i32 to index
    %1235:3 = scf.for %arg2 = %1234 to %c253 step %c1 iter_args(%arg3 = %1233#1, %arg4 = %1233#2, %arg5 = %1233#1) -> (i32, i32, i32) {
      %1281 = arith.index_cast %arg3 : i32 to index
      %1282 = arith.index_cast %arg4 : i32 to index
      %1283 = memref.load %1[%1282] : memref<4096xi32>
      memref.store %1283, %2[%1281] : memref<256xi32>
      %1284 = arith.addi %arg4, %c1_i32 : i32
      %1285 = arith.addi %arg3, %c1_i32 : i32
      scf.yield %1285, %1284, %1285 : i32, i32, i32
    }
    %1236 = arith.index_cast %1233#0 : i32 to index
    %1237 = arith.index_cast %1235#2 : i32 to index
    scf.for %arg2 = %1236 to %c254 step %c1 {
      %1281 = arith.subi %arg2, %1236 : index
      %1282 = arith.addi %1237, %1281 : index
      %1283 = memref.load %1[%arg2] : memref<4096xi32>
      memref.store %1283, %2[%1282] : memref<256xi32>
    }
    scf.for %arg2 = %c0 to %c3 step %c1 {
      %1281 = arith.subi %c253, %arg2 : index
      %1282 = memref.load %2[%1281] : memref<256xi32>
      memref.store %1282, %1[%1281] : memref<4096xi32>
    }
    call @m_sort(%cast, %cast_0, %c254_i32, %c254_i32) : (memref<?xi32>, memref<?xi32>, i32, i32) -> ()
    call @m_sort(%cast, %cast_0, %c255_i32, %c255_i32) : (memref<?xi32>, memref<?xi32>, i32, i32) -> ()
    %1238:3 = scf.while (%arg2 = %c254_i32, %arg3 = %c255_i32, %arg4 = %c254_i32) : (i32, i32, i32) -> (i32, i32, i32) {
      %1281 = arith.cmpi sle, %arg4, %c254_i32 : i32
      %1282 = arith.cmpi sle, %arg3, %c255_i32 : i32
      %1283 = arith.andi %1281, %1282 : i1
      scf.condition(%1283) %arg3, %arg2, %arg4 : i32, i32, i32
    } do {
    ^bb0(%arg2: i32, %arg3: i32, %arg4: i32):
      %1281 = arith.index_cast %arg4 : i32 to index
      %1282 = memref.load %1[%1281] : memref<4096xi32>
      %1283 = arith.index_cast %arg2 : i32 to index
      %1284 = memref.load %1[%1283] : memref<4096xi32>
      %1285 = arith.cmpi sle, %1282, %1284 : i32
      %1286:3 = scf.if %1285 -> (i32, i32, i32) {
        %1287 = arith.index_cast %arg3 : i32 to index
        memref.store %1282, %2[%1287] : memref<256xi32>
        %1288 = arith.addi %arg3, %c1_i32 : i32
        %1289 = arith.addi %arg4, %c1_i32 : i32
        scf.yield %1288, %arg2, %1289 : i32, i32, i32
      } else {
        %1287 = arith.index_cast %arg3 : i32 to index
        memref.store %1284, %2[%1287] : memref<256xi32>
        %1288 = arith.addi %arg3, %c1_i32 : i32
        %1289 = arith.addi %arg2, %c1_i32 : i32
        scf.yield %1288, %1289, %arg4 : i32, i32, i32
      }
      scf.yield %1286#0, %1286#1, %1286#2 : i32, i32, i32
    }
    %1239 = arith.index_cast %1238#2 : i32 to index
    %1240:3 = scf.for %arg2 = %1239 to %c255 step %c1 iter_args(%arg3 = %1238#1, %arg4 = %1238#2, %arg5 = %1238#1) -> (i32, i32, i32) {
      %1281 = arith.index_cast %arg3 : i32 to index
      %1282 = arith.index_cast %arg4 : i32 to index
      %1283 = memref.load %1[%1282] : memref<4096xi32>
      memref.store %1283, %2[%1281] : memref<256xi32>
      %1284 = arith.addi %arg4, %c1_i32 : i32
      %1285 = arith.addi %arg3, %c1_i32 : i32
      scf.yield %1285, %1284, %1285 : i32, i32, i32
    }
    %1241 = arith.index_cast %1238#0 : i32 to index
    %1242 = arith.index_cast %1240#2 : i32 to index
    scf.for %arg2 = %1241 to %c256 step %c1 {
      %1281 = arith.subi %arg2, %1241 : index
      %1282 = arith.addi %1242, %1281 : index
      %1283 = memref.load %1[%arg2] : memref<4096xi32>
      memref.store %1283, %2[%1282] : memref<256xi32>
    }
    scf.for %arg2 = %c0 to %c3 step %c1 {
      %1281 = arith.subi %c255, %arg2 : index
      %1282 = memref.load %2[%1281] : memref<256xi32>
      memref.store %1282, %1[%1281] : memref<4096xi32>
    }
    %1243:3 = scf.while (%arg2 = %c252_i32, %arg3 = %c254_i32, %arg4 = %c252_i32) : (i32, i32, i32) -> (i32, i32, i32) {
      %1281 = arith.cmpi sle, %arg4, %c253_i32 : i32
      %1282 = arith.cmpi sle, %arg3, %c255_i32 : i32
      %1283 = arith.andi %1281, %1282 : i1
      scf.condition(%1283) %arg3, %arg2, %arg4 : i32, i32, i32
    } do {
    ^bb0(%arg2: i32, %arg3: i32, %arg4: i32):
      %1281 = arith.index_cast %arg4 : i32 to index
      %1282 = memref.load %1[%1281] : memref<4096xi32>
      %1283 = arith.index_cast %arg2 : i32 to index
      %1284 = memref.load %1[%1283] : memref<4096xi32>
      %1285 = arith.cmpi sle, %1282, %1284 : i32
      %1286:3 = scf.if %1285 -> (i32, i32, i32) {
        %1287 = arith.index_cast %arg3 : i32 to index
        memref.store %1282, %2[%1287] : memref<256xi32>
        %1288 = arith.addi %arg3, %c1_i32 : i32
        %1289 = arith.addi %arg4, %c1_i32 : i32
        scf.yield %1288, %arg2, %1289 : i32, i32, i32
      } else {
        %1287 = arith.index_cast %arg3 : i32 to index
        memref.store %1284, %2[%1287] : memref<256xi32>
        %1288 = arith.addi %arg3, %c1_i32 : i32
        %1289 = arith.addi %arg2, %c1_i32 : i32
        scf.yield %1288, %1289, %arg4 : i32, i32, i32
      }
      scf.yield %1286#0, %1286#1, %1286#2 : i32, i32, i32
    }
    %1244 = arith.index_cast %1243#2 : i32 to index
    %1245:3 = scf.for %arg2 = %1244 to %c254 step %c1 iter_args(%arg3 = %1243#1, %arg4 = %1243#2, %arg5 = %1243#1) -> (i32, i32, i32) {
      %1281 = arith.index_cast %arg3 : i32 to index
      %1282 = arith.index_cast %arg4 : i32 to index
      %1283 = memref.load %1[%1282] : memref<4096xi32>
      memref.store %1283, %2[%1281] : memref<256xi32>
      %1284 = arith.addi %arg4, %c1_i32 : i32
      %1285 = arith.addi %arg3, %c1_i32 : i32
      scf.yield %1285, %1284, %1285 : i32, i32, i32
    }
    %1246 = arith.index_cast %1243#0 : i32 to index
    %1247 = arith.index_cast %1245#2 : i32 to index
    scf.for %arg2 = %1246 to %c256 step %c1 {
      %1281 = arith.subi %arg2, %1246 : index
      %1282 = arith.addi %1247, %1281 : index
      %1283 = memref.load %1[%arg2] : memref<4096xi32>
      memref.store %1283, %2[%1282] : memref<256xi32>
    }
    scf.for %arg2 = %c0 to %c5 step %c1 {
      %1281 = arith.subi %c255, %arg2 : index
      %1282 = memref.load %2[%1281] : memref<256xi32>
      memref.store %1282, %1[%1281] : memref<4096xi32>
    }
    %1248:3 = scf.while (%arg2 = %c248_i32, %arg3 = %c252_i32, %arg4 = %c248_i32) : (i32, i32, i32) -> (i32, i32, i32) {
      %1281 = arith.cmpi sle, %arg4, %c251_i32 : i32
      %1282 = arith.cmpi sle, %arg3, %c255_i32 : i32
      %1283 = arith.andi %1281, %1282 : i1
      scf.condition(%1283) %arg3, %arg2, %arg4 : i32, i32, i32
    } do {
    ^bb0(%arg2: i32, %arg3: i32, %arg4: i32):
      %1281 = arith.index_cast %arg4 : i32 to index
      %1282 = memref.load %1[%1281] : memref<4096xi32>
      %1283 = arith.index_cast %arg2 : i32 to index
      %1284 = memref.load %1[%1283] : memref<4096xi32>
      %1285 = arith.cmpi sle, %1282, %1284 : i32
      %1286:3 = scf.if %1285 -> (i32, i32, i32) {
        %1287 = arith.index_cast %arg3 : i32 to index
        memref.store %1282, %2[%1287] : memref<256xi32>
        %1288 = arith.addi %arg3, %c1_i32 : i32
        %1289 = arith.addi %arg4, %c1_i32 : i32
        scf.yield %1288, %arg2, %1289 : i32, i32, i32
      } else {
        %1287 = arith.index_cast %arg3 : i32 to index
        memref.store %1284, %2[%1287] : memref<256xi32>
        %1288 = arith.addi %arg3, %c1_i32 : i32
        %1289 = arith.addi %arg2, %c1_i32 : i32
        scf.yield %1288, %1289, %arg4 : i32, i32, i32
      }
      scf.yield %1286#0, %1286#1, %1286#2 : i32, i32, i32
    }
    %1249 = arith.index_cast %1248#2 : i32 to index
    %1250:3 = scf.for %arg2 = %1249 to %c252 step %c1 iter_args(%arg3 = %1248#1, %arg4 = %1248#2, %arg5 = %1248#1) -> (i32, i32, i32) {
      %1281 = arith.index_cast %arg3 : i32 to index
      %1282 = arith.index_cast %arg4 : i32 to index
      %1283 = memref.load %1[%1282] : memref<4096xi32>
      memref.store %1283, %2[%1281] : memref<256xi32>
      %1284 = arith.addi %arg4, %c1_i32 : i32
      %1285 = arith.addi %arg3, %c1_i32 : i32
      scf.yield %1285, %1284, %1285 : i32, i32, i32
    }
    %1251 = arith.index_cast %1248#0 : i32 to index
    %1252 = arith.index_cast %1250#2 : i32 to index
    scf.for %arg2 = %1251 to %c256 step %c1 {
      %1281 = arith.subi %arg2, %1251 : index
      %1282 = arith.addi %1252, %1281 : index
      %1283 = memref.load %1[%arg2] : memref<4096xi32>
      memref.store %1283, %2[%1282] : memref<256xi32>
    }
    scf.for %arg2 = %c0 to %c9 step %c1 {
      %1281 = arith.subi %c255, %arg2 : index
      %1282 = memref.load %2[%1281] : memref<256xi32>
      memref.store %1282, %1[%1281] : memref<4096xi32>
    }
    %1253:3 = scf.while (%arg2 = %c240_i32, %arg3 = %c248_i32, %arg4 = %c240_i32) : (i32, i32, i32) -> (i32, i32, i32) {
      %1281 = arith.cmpi sle, %arg4, %c247_i32 : i32
      %1282 = arith.cmpi sle, %arg3, %c255_i32 : i32
      %1283 = arith.andi %1281, %1282 : i1
      scf.condition(%1283) %arg3, %arg2, %arg4 : i32, i32, i32
    } do {
    ^bb0(%arg2: i32, %arg3: i32, %arg4: i32):
      %1281 = arith.index_cast %arg4 : i32 to index
      %1282 = memref.load %1[%1281] : memref<4096xi32>
      %1283 = arith.index_cast %arg2 : i32 to index
      %1284 = memref.load %1[%1283] : memref<4096xi32>
      %1285 = arith.cmpi sle, %1282, %1284 : i32
      %1286:3 = scf.if %1285 -> (i32, i32, i32) {
        %1287 = arith.index_cast %arg3 : i32 to index
        memref.store %1282, %2[%1287] : memref<256xi32>
        %1288 = arith.addi %arg3, %c1_i32 : i32
        %1289 = arith.addi %arg4, %c1_i32 : i32
        scf.yield %1288, %arg2, %1289 : i32, i32, i32
      } else {
        %1287 = arith.index_cast %arg3 : i32 to index
        memref.store %1284, %2[%1287] : memref<256xi32>
        %1288 = arith.addi %arg3, %c1_i32 : i32
        %1289 = arith.addi %arg2, %c1_i32 : i32
        scf.yield %1288, %1289, %arg4 : i32, i32, i32
      }
      scf.yield %1286#0, %1286#1, %1286#2 : i32, i32, i32
    }
    %1254 = arith.index_cast %1253#2 : i32 to index
    %1255:3 = scf.for %arg2 = %1254 to %c248 step %c1 iter_args(%arg3 = %1253#1, %arg4 = %1253#2, %arg5 = %1253#1) -> (i32, i32, i32) {
      %1281 = arith.index_cast %arg3 : i32 to index
      %1282 = arith.index_cast %arg4 : i32 to index
      %1283 = memref.load %1[%1282] : memref<4096xi32>
      memref.store %1283, %2[%1281] : memref<256xi32>
      %1284 = arith.addi %arg4, %c1_i32 : i32
      %1285 = arith.addi %arg3, %c1_i32 : i32
      scf.yield %1285, %1284, %1285 : i32, i32, i32
    }
    %1256 = arith.index_cast %1253#0 : i32 to index
    %1257 = arith.index_cast %1255#2 : i32 to index
    scf.for %arg2 = %1256 to %c256 step %c1 {
      %1281 = arith.subi %arg2, %1256 : index
      %1282 = arith.addi %1257, %1281 : index
      %1283 = memref.load %1[%arg2] : memref<4096xi32>
      memref.store %1283, %2[%1282] : memref<256xi32>
    }
    scf.for %arg2 = %c0 to %c17 step %c1 {
      %1281 = arith.subi %c255, %arg2 : index
      %1282 = memref.load %2[%1281] : memref<256xi32>
      memref.store %1282, %1[%1281] : memref<4096xi32>
    }
    %1258:3 = scf.while (%arg2 = %c224_i32, %arg3 = %c240_i32, %arg4 = %c224_i32) : (i32, i32, i32) -> (i32, i32, i32) {
      %1281 = arith.cmpi sle, %arg4, %c239_i32 : i32
      %1282 = arith.cmpi sle, %arg3, %c255_i32 : i32
      %1283 = arith.andi %1281, %1282 : i1
      scf.condition(%1283) %arg3, %arg2, %arg4 : i32, i32, i32
    } do {
    ^bb0(%arg2: i32, %arg3: i32, %arg4: i32):
      %1281 = arith.index_cast %arg4 : i32 to index
      %1282 = memref.load %1[%1281] : memref<4096xi32>
      %1283 = arith.index_cast %arg2 : i32 to index
      %1284 = memref.load %1[%1283] : memref<4096xi32>
      %1285 = arith.cmpi sle, %1282, %1284 : i32
      %1286:3 = scf.if %1285 -> (i32, i32, i32) {
        %1287 = arith.index_cast %arg3 : i32 to index
        memref.store %1282, %2[%1287] : memref<256xi32>
        %1288 = arith.addi %arg3, %c1_i32 : i32
        %1289 = arith.addi %arg4, %c1_i32 : i32
        scf.yield %1288, %arg2, %1289 : i32, i32, i32
      } else {
        %1287 = arith.index_cast %arg3 : i32 to index
        memref.store %1284, %2[%1287] : memref<256xi32>
        %1288 = arith.addi %arg3, %c1_i32 : i32
        %1289 = arith.addi %arg2, %c1_i32 : i32
        scf.yield %1288, %1289, %arg4 : i32, i32, i32
      }
      scf.yield %1286#0, %1286#1, %1286#2 : i32, i32, i32
    }
    %1259 = arith.index_cast %1258#2 : i32 to index
    %1260:3 = scf.for %arg2 = %1259 to %c240 step %c1 iter_args(%arg3 = %1258#1, %arg4 = %1258#2, %arg5 = %1258#1) -> (i32, i32, i32) {
      %1281 = arith.index_cast %arg3 : i32 to index
      %1282 = arith.index_cast %arg4 : i32 to index
      %1283 = memref.load %1[%1282] : memref<4096xi32>
      memref.store %1283, %2[%1281] : memref<256xi32>
      %1284 = arith.addi %arg4, %c1_i32 : i32
      %1285 = arith.addi %arg3, %c1_i32 : i32
      scf.yield %1285, %1284, %1285 : i32, i32, i32
    }
    %1261 = arith.index_cast %1258#0 : i32 to index
    %1262 = arith.index_cast %1260#2 : i32 to index
    scf.for %arg2 = %1261 to %c256 step %c1 {
      %1281 = arith.subi %arg2, %1261 : index
      %1282 = arith.addi %1262, %1281 : index
      %1283 = memref.load %1[%arg2] : memref<4096xi32>
      memref.store %1283, %2[%1282] : memref<256xi32>
    }
    scf.for %arg2 = %c0 to %c33 step %c1 {
      %1281 = arith.subi %c255, %arg2 : index
      %1282 = memref.load %2[%1281] : memref<256xi32>
      memref.store %1282, %1[%1281] : memref<4096xi32>
    }
    %1263:3 = scf.while (%arg2 = %c192_i32, %arg3 = %c224_i32, %arg4 = %c192_i32) : (i32, i32, i32) -> (i32, i32, i32) {
      %1281 = arith.cmpi sle, %arg4, %c223_i32 : i32
      %1282 = arith.cmpi sle, %arg3, %c255_i32 : i32
      %1283 = arith.andi %1281, %1282 : i1
      scf.condition(%1283) %arg3, %arg2, %arg4 : i32, i32, i32
    } do {
    ^bb0(%arg2: i32, %arg3: i32, %arg4: i32):
      %1281 = arith.index_cast %arg4 : i32 to index
      %1282 = memref.load %1[%1281] : memref<4096xi32>
      %1283 = arith.index_cast %arg2 : i32 to index
      %1284 = memref.load %1[%1283] : memref<4096xi32>
      %1285 = arith.cmpi sle, %1282, %1284 : i32
      %1286:3 = scf.if %1285 -> (i32, i32, i32) {
        %1287 = arith.index_cast %arg3 : i32 to index
        memref.store %1282, %2[%1287] : memref<256xi32>
        %1288 = arith.addi %arg3, %c1_i32 : i32
        %1289 = arith.addi %arg4, %c1_i32 : i32
        scf.yield %1288, %arg2, %1289 : i32, i32, i32
      } else {
        %1287 = arith.index_cast %arg3 : i32 to index
        memref.store %1284, %2[%1287] : memref<256xi32>
        %1288 = arith.addi %arg3, %c1_i32 : i32
        %1289 = arith.addi %arg2, %c1_i32 : i32
        scf.yield %1288, %1289, %arg4 : i32, i32, i32
      }
      scf.yield %1286#0, %1286#1, %1286#2 : i32, i32, i32
    }
    %1264 = arith.index_cast %1263#2 : i32 to index
    %1265:3 = scf.for %arg2 = %1264 to %c224 step %c1 iter_args(%arg3 = %1263#1, %arg4 = %1263#2, %arg5 = %1263#1) -> (i32, i32, i32) {
      %1281 = arith.index_cast %arg3 : i32 to index
      %1282 = arith.index_cast %arg4 : i32 to index
      %1283 = memref.load %1[%1282] : memref<4096xi32>
      memref.store %1283, %2[%1281] : memref<256xi32>
      %1284 = arith.addi %arg4, %c1_i32 : i32
      %1285 = arith.addi %arg3, %c1_i32 : i32
      scf.yield %1285, %1284, %1285 : i32, i32, i32
    }
    %1266 = arith.index_cast %1263#0 : i32 to index
    %1267 = arith.index_cast %1265#2 : i32 to index
    scf.for %arg2 = %1266 to %c256 step %c1 {
      %1281 = arith.subi %arg2, %1266 : index
      %1282 = arith.addi %1267, %1281 : index
      %1283 = memref.load %1[%arg2] : memref<4096xi32>
      memref.store %1283, %2[%1282] : memref<256xi32>
    }
    scf.for %arg2 = %c0 to %c65 step %c1 {
      %1281 = arith.subi %c255, %arg2 : index
      %1282 = memref.load %2[%1281] : memref<256xi32>
      memref.store %1282, %1[%1281] : memref<4096xi32>
    }
    %1268:3 = scf.while (%arg2 = %c128_i32, %arg3 = %c192_i32, %arg4 = %c128_i32) : (i32, i32, i32) -> (i32, i32, i32) {
      %1281 = arith.cmpi sle, %arg4, %c191_i32 : i32
      %1282 = arith.cmpi sle, %arg3, %c255_i32 : i32
      %1283 = arith.andi %1281, %1282 : i1
      scf.condition(%1283) %arg3, %arg2, %arg4 : i32, i32, i32
    } do {
    ^bb0(%arg2: i32, %arg3: i32, %arg4: i32):
      %1281 = arith.index_cast %arg4 : i32 to index
      %1282 = memref.load %1[%1281] : memref<4096xi32>
      %1283 = arith.index_cast %arg2 : i32 to index
      %1284 = memref.load %1[%1283] : memref<4096xi32>
      %1285 = arith.cmpi sle, %1282, %1284 : i32
      %1286:3 = scf.if %1285 -> (i32, i32, i32) {
        %1287 = arith.index_cast %arg3 : i32 to index
        memref.store %1282, %2[%1287] : memref<256xi32>
        %1288 = arith.addi %arg3, %c1_i32 : i32
        %1289 = arith.addi %arg4, %c1_i32 : i32
        scf.yield %1288, %arg2, %1289 : i32, i32, i32
      } else {
        %1287 = arith.index_cast %arg3 : i32 to index
        memref.store %1284, %2[%1287] : memref<256xi32>
        %1288 = arith.addi %arg3, %c1_i32 : i32
        %1289 = arith.addi %arg2, %c1_i32 : i32
        scf.yield %1288, %1289, %arg4 : i32, i32, i32
      }
      scf.yield %1286#0, %1286#1, %1286#2 : i32, i32, i32
    }
    %1269 = arith.index_cast %1268#2 : i32 to index
    %1270:3 = scf.for %arg2 = %1269 to %c192 step %c1 iter_args(%arg3 = %1268#1, %arg4 = %1268#2, %arg5 = %1268#1) -> (i32, i32, i32) {
      %1281 = arith.index_cast %arg3 : i32 to index
      %1282 = arith.index_cast %arg4 : i32 to index
      %1283 = memref.load %1[%1282] : memref<4096xi32>
      memref.store %1283, %2[%1281] : memref<256xi32>
      %1284 = arith.addi %arg4, %c1_i32 : i32
      %1285 = arith.addi %arg3, %c1_i32 : i32
      scf.yield %1285, %1284, %1285 : i32, i32, i32
    }
    %1271 = arith.index_cast %1268#0 : i32 to index
    %1272 = arith.index_cast %1270#2 : i32 to index
    scf.for %arg2 = %1271 to %c256 step %c1 {
      %1281 = arith.subi %arg2, %1271 : index
      %1282 = arith.addi %1272, %1281 : index
      %1283 = memref.load %1[%arg2] : memref<4096xi32>
      memref.store %1283, %2[%1282] : memref<256xi32>
    }
    scf.for %arg2 = %c0 to %c129 step %c1 {
      %1281 = arith.subi %c255, %arg2 : index
      %1282 = memref.load %2[%1281] : memref<256xi32>
      memref.store %1282, %1[%1281] : memref<4096xi32>
    }
    %1273:3 = scf.while (%arg2 = %c0_i32, %arg3 = %c128_i32, %arg4 = %c0_i32) : (i32, i32, i32) -> (i32, i32, i32) {
      %1281 = arith.cmpi sle, %arg4, %c127_i32 : i32
      %1282 = arith.cmpi sle, %arg3, %c255_i32 : i32
      %1283 = arith.andi %1281, %1282 : i1
      scf.condition(%1283) %arg3, %arg2, %arg4 : i32, i32, i32
    } do {
    ^bb0(%arg2: i32, %arg3: i32, %arg4: i32):
      %1281 = arith.index_cast %arg4 : i32 to index
      %1282 = memref.load %1[%1281] : memref<4096xi32>
      %1283 = arith.index_cast %arg2 : i32 to index
      %1284 = memref.load %1[%1283] : memref<4096xi32>
      %1285 = arith.cmpi sle, %1282, %1284 : i32
      %1286:3 = scf.if %1285 -> (i32, i32, i32) {
        %1287 = arith.index_cast %arg3 : i32 to index
        memref.store %1282, %2[%1287] : memref<256xi32>
        %1288 = arith.addi %arg3, %c1_i32 : i32
        %1289 = arith.addi %arg4, %c1_i32 : i32
        scf.yield %1288, %arg2, %1289 : i32, i32, i32
      } else {
        %1287 = arith.index_cast %arg3 : i32 to index
        memref.store %1284, %2[%1287] : memref<256xi32>
        %1288 = arith.addi %arg3, %c1_i32 : i32
        %1289 = arith.addi %arg2, %c1_i32 : i32
        scf.yield %1288, %1289, %arg4 : i32, i32, i32
      }
      scf.yield %1286#0, %1286#1, %1286#2 : i32, i32, i32
    }
    %1274 = arith.index_cast %1273#2 : i32 to index
    %1275:3 = scf.for %arg2 = %1274 to %c128 step %c1 iter_args(%arg3 = %1273#1, %arg4 = %1273#2, %arg5 = %1273#1) -> (i32, i32, i32) {
      %1281 = arith.index_cast %arg3 : i32 to index
      %1282 = arith.index_cast %arg4 : i32 to index
      %1283 = memref.load %1[%1282] : memref<4096xi32>
      memref.store %1283, %2[%1281] : memref<256xi32>
      %1284 = arith.addi %arg4, %c1_i32 : i32
      %1285 = arith.addi %arg3, %c1_i32 : i32
      scf.yield %1285, %1284, %1285 : i32, i32, i32
    }
    %1276 = arith.index_cast %1273#0 : i32 to index
    %1277 = arith.index_cast %1275#2 : i32 to index
    scf.for %arg2 = %1276 to %c256 step %c1 {
      %1281 = arith.subi %arg2, %1276 : index
      %1282 = arith.addi %1277, %1281 : index
      %1283 = memref.load %1[%arg2] : memref<4096xi32>
      memref.store %1283, %2[%1282] : memref<256xi32>
    }
    scf.for %arg2 = %c0 to %c257 step %c1 {
      %1281 = arith.subi %c255, %arg2 : index
      %1282 = memref.load %2[%1281] : memref<256xi32>
      memref.store %1282, %1[%1281] : memref<4096xi32>
    }
    %1278 = llvm.mlir.addressof @str0 : !llvm.ptr
    %1279 = llvm.getelementptr %1278[0, 0] : (!llvm.ptr) -> !llvm.ptr, !llvm.array<14 x i8>
    %1280 = llvm.call @printf(%1279, %c0_i64) vararg(!llvm.func<i32 (ptr, ...)>) : (!llvm.ptr, i64) -> i32
    return %0 : i32
  }
}
